Graph-Bert/result/PreTrained_GraphBert/biomed/node_classification_complete_model/pytorch_model.bin (torch_old, 325541 bytes, 47 tensors)

bert.embeddings.raw_feature_embeddings.weight f4 [32, 835]
-0.27298278 0.051498212 0.12333795 -0.14110844 0.040295742 0.11057046 0.0436468 0.03245634
0.17222703 0.14624499 0.07314888 -0.032323603 0.16566148 0.08137824 0.03982224 0.050234105
0.19843821 0.04744072 0.03400163 -0.060744666 -0.08311534 0.11415716 -0.022400457 0.11817818
-0.11106732 0.13774788 -0.015282607 -0.036384497 -0.0044153845 0.15073876 -0.17960288 0.019924473
0.06395142 0.0147591615 0.0015665628 0.09414559 0.03877068 -0.09035047 -0.12612446 -0.019731559
-0.09435326 0.007518977 -0.15349402 0.023661459 0.1112162 -0.08488659 0.12290583 -0.07763457
-0.15079662 0.01159277 -0.08102042 0.06496942 0.0989846 0.010161266 0.12316084 -0.12951364
-0.03572581 0.12870272 -0.07078636 -0.09736903 0.041805502 -0.12231541 0.09937788 -0.032586057
0.032752905 0.116947085 0.076223016 -0.062810734 -0.03166328 0.109904476 -0.059670474 0.081925295
-0.018944412 -0.1691035 0.009370031 0.010659512 -0.0069058435 0.008483545 -0.054598372 0.1126321
0.056283046 -0.07080137 -0.12074588 0.092718825 0.17772134 -0.17678246 0.0019932382 -0.047431525
0.14359722 0.071394935 0.023392804 0.184946 -0.10703902 0.019684233 -0.0476488 0.115461685
-0.051718533 -0.07730708 0.19301212 0.14476383 0.06525713 0.04398627 -0.06959931 0.041629687
-0.25835273 0.05798358 -0.10044913 -0.06893987 0.15933095 0.062253322 0.03301034 0.16354646
-0.05209507 -0.2351527 -0.20802142 0.1754468 0.0651134 0.014710578 0.044830497 0.0790809
-0.041717116 -0.18996002 0.036616843 -0.17439497 -0.0607387 -0.15907553 -0.012473163 -0.08046396
-0.072849646 0.036392406 -0.081685774 0.020574069 0.22208966 -0.09560499 0.12633331 -0.04592071
-0.051086295 0.030134043 -0.113447554 0.07710971 0.03764222 0.11550505 0.040316526 0.053823248
-0.05289953 0.13896747 0.060394946 0.02223518 -0.0980199 0.24173038 -0.00042228814 -0.042212326
-0.087478906 0.13647617 0.12575844 -0.18790792 -0.08471583 -0.0024799148 -0.02611018 0.17035334
0.10353035 0.033610683 0.156526 -0.1489885 0.007882302 0.12110667 -0.05597126 0.1189694
0.056032922 -0.11475004 -0.0707497 -0.12834503 0.04047001 -0.08058038 0.05718355 0.10975415
-0.11655251 -0.17829126 -0.038823225 0.06991617 0.07573293 0.18693785 0.061692193 -0.059455432
0.1729369 0.086125195 0.14673206 -0.0047411663 -0.027179679 -0.12443214 0.07988339 -0.0945683
-0.023143588 -0.0090486435 -0.0031912064 0.049747106 -0.09148934 0.19499843 -0.1555231 0.18775564
0.061378326 -0.06896186 -0.09163879 -0.0777152 -0.0041238796 -0.01387796 -0.302665 0.05520113
-0.043820113 0.038185485 -0.10232446 -0.057434633 0.05699315 0.1769221 -0.009479229 0.20975257
-0.020566624 0.0421464 -0.14564979 0.020196687 -0.099417016 -0.086363 -0.039274752 0.14164066
0.0096453 0.2279141 0.032324605 -0.042749844 0.004246643 0.058898076 -0.019082714 -0.072557226
-0.04722232 -0.04994067 0.16951573 -0.16102742 -0.0876343 0.21374598 -0.16639905 -0.10241581
0.019397907 0.020033125 0.06917589 0.048624277 0.06409746 0.17449746 0.036607604 -0.059973717
-0.029808275 -0.02035277 0.023120917 0.24355996 -0.018607482 0.024516327 0.16161075 0.11634338
00000000: 66c4 8bbe caef 523d 9b98 fc3d bb7e 10be
00000010: 260d 253d c472 e23d fdc6 323d f0f0 043d
00000020: 485c 303e 3fc1 153e 14cf 953d c165 04bd
00000030: 2aa3 293e a2a9 a63d a51c 233d 47c2 4d3d
00000040: 6333 4b3e 3351 423d 4b45 0b3d 66cf 78bd
00000050: 6038 aabd 3bcb e93d 2a81 b7bc 6707 f23d
00000060: 4377 e3bd c80d 0d3e e663 7abc e907 15bd
00000070: eeae 90bb 435b 1a3e d1e9 37be a638 a33c
00000080: f6f8 823d 69d0 713c 2055 cd3a 67cf c03d
00000090: 01ce 1e3d ab09 b9bd c526 01be 14a4 a1bc
000000a0: 483c c1bd c061 f63b 892d 1dbe add5 c13c
000000b0: 52c5 e33d 05d9 adbd 0db6 fb3d e0fe 9ebd
000000c0: 6e6a 1abe 9aef 3d3c 09ee a5bd b00e 853d
000000d0: 70b8 ca3d 707b 263c c03b fc3d 399f 04be
000000e0: 3a55 12bd a5ca 033e 70f8 90bd 6a69 c7bd
000000f0: 3f3c 2b3d 8080 fabd a186 cb3d f578 05bd
00000100: e927 063d f481 ef3d d01a 9c3d eaa2 80bd
00000110: 5bb1 01bd 9915 e13d 0769 74bd 73c8 a73d
00000120: 5031 9bbc 7829 2dbe c284 193c 3ca5 2e3c
00000130: 6a4a e2bb 91fe 0a3c 8ba2 5fbd a9ab e63d
00000140: 0d89 663d 4f00 91bd 9e49 f7bd 5ee3 bd3d
00000150: 95fc 353e 7606 35be fda0 023b 8f47 42bd
00000160: 260b 133e 8237 923d 44a2 bf3c 7c62 3d3e
00000170: 4637 dbbd d440 a13c 632b 43bd 2d77 ec3d
00000180: d0d6 53bd 2d53 9ebd f8a4 453e f83c 143e
00000190: 88a5 853d f22a 343d 158a 8ebd e483 2a3d
000001a0: cf46 84be 3180 6d3d 46b8 cdbd 5930 8dbd
000001b0: a727 233e 57fd 7e3d da35 073d b978 273e
000001c0: a461 55bd dfcb 70be 9103 55be 53a8 333e
000001d0: 2d5a 853d a304 713c 2fa0 373d 2bf5 a13d
000001e0: 91df 2abd e184 42be 8bfb 153d 9894 32be
000001f0: 25c9 78bd b2e4 22be 3d5c 4cbc 4aca a4bd
00000200: 3232 95bd 3410 153d df4a a7bd f38a a83c
00000210: 796b 633e 8dcc c3bd 855d 013e 5b17 3cbd
00000220: dd3f 51bd abdb f63c 3157 e8bd b2eb 9d3d
00000230: ba2e 1a3d e98d ec3d f122 253d c475 5c3d
00000240: 2dad 58bd 7d4d 0e3e b160 773d 8d26 b63c
00000250: a8be c8bd 2b88 773e 8e66 ddb9 d5e6 2cbd
00000260: 2428 b3bd 69c0 0b3e d2c6 003e ef6a 40be
00000270: 7e7f adbd 1186 22bb 04e5 d5bc 1b71 2e3e
00000280: b807 d43d 5bab 093d 5a48 203e 7190 18be
00000290: c524 013c c606 f83d 1f42 65bd 3ba6 f33d
000002a0: c782 653d 1202 ebbd 38e5 90bd e16c 03be
000002b0: e2c3 253d 5407 a5bd 4c39 6a3d c9c6 e03d
000002c0: 15b3 eebd fc91 36be 1a05 1fbd 3530 8f3d
000002d0: de19 9b3d a36c 3f3e f4b0 7c3d 8a87 73bd
000002e0: 5f16 313e 6862 b03d ee40 163e c95b 9bbb
000002f0: eba7 debc 47d6 febd e799 a33d 06ad c1bd
00000300: 9f97 bdbc c340 14bc 8f23 51bb 9fc3 4b3d
00000310: c35e bbbd abad 473e 7341 1fbe 0443 403e
00000320: d767 7b3d e03b 8dbd 1ead bbbd 2629 9fbd
00000330: 9c21 87bb 6260 63bc e8f6 9abe 951a 623d
00000340: b87c 33bd 6268 1c3d 7d8f d1bd 9440 6bbd
00000350: a671 693d 112b 353e c54e 1bbc 61c9 563e
00000360: 567b a8bc b4a1 2c3d 3825 15be 8673 a53c
00000370: 269b cbbd 16df b0bd 90de 20bd 400a 113e
00000380: 5207 1e3c 5062 693e ce66 043d 761a 2fbd
00000390: 6c27 8b3b 1c3f 713d 5a53 9cbc e298 94bd
000003a0: 316c 41bd 978e 4cbd 8895 2d3e 5fe4 24be
000003b0: 9d79 b3bd 3ae0 5a3e 8364 2abe 61bf d1bd
000003c0: 5ce8 9e3c 821c a43c 17ac 8d3d 402a 473d
000003d0: 8745 833d 76af 323e dbf1 153d 00a7 75bd
000003e0: 7c30 f4bc daba a6bc 1468 bd3c c867 793e
000003f0: b86e 98bc 77d6 c83c 4a7d 253e 7045 ee3d

bert.embeddings.raw_feature_embeddings.bias f4 [32]
0.10099403 0.035385773 0.21542236 -0.2878895 -0.06353794 -0.4019589 0.38479918 0.2162737
-0.34977153 0.17858939 0.097465806 -0.24004856 0.20465076 -0.27011794 -0.16132948 0.09196768
0.26076263 -0.19777603 0.00674131 -0.3133564 -0.29926825 -0.19045752 0.020452734 0.33634531
0.0055376096 -0.16835566 0.013396191 0.2384241 -0.23741083 0.4190226 0.1575084 0.18122
00000000: f5d5 ce3d acf0 103d ae97 5c3e 4166 93be
00000010: 2e20 82bd 8fcd cdbe 6604 c53e da76 5d3e
00000020: 4115 b3be 23e0 363e 279c c73d 4acf 75be
00000030: f88f 513e e64c 8abe 8e33 25be 8d59 bc3d
00000040: ae82 853e cd85 4abe 35e6 dc3b 4070 a0be
00000050: b039 99be 4c07 43be 7e8c a73c 7435 ac3e
00000060: d674 b53b 6d65 2cbe b37b 5b3c 7325 743e
00000070: d31b 73be 218a d63e e249 213e bc91 393e

bert.embeddings.wl_role_embeddings.weight f4 [100, 32]
4.0195e-41 6.0438723e-16 6.812355e-39 -3.194368e-13 6.357096e-39 -1.9593097e-07 2.562989e-39 -7.9449197e-13
3.383694e-39 -2.5142765e-07 2.28509e-39 1.9583738e-15 3.495734e-09 -4.090756e-39 1.4391224e-11 -9.063893e-39
1.1505811e-26 -1.219351e-39 -1.13253045e-05 -6.99521e-07 2.09629e-40 -4.166226e-39 2.912232e-39 1.605333e-39
-1.521764e-39 -2.125879e-15 -2.311065e-39 -1.23617e-40 -9.85636e-40 3.408308e-39 -1.90571e-39 7.56631e-40
0.05958694 0.039077796 0.00891764 0.025001826 -0.037180293 0.027148353 -0.079198666 -0.04724393
-0.011011809 0.020772953 -0.033805657 0.0111488355 -1.3285549e-05 0.031238634 -0.066172965 0.043118667
-0.027013086 -0.0061983434 0.0040613394 0.03635708 0.053853877 -0.02739793 -0.0125469845 -0.030231144
0.008092906 -0.009857184 0.003786847 0.012019493 0.0013102777 -0.051387683 -0.01720036 0.03715538
0.01955762 0.0439856 0.00851984 0.12691888 -0.047979996 0.09830495 -0.05022584 -0.0403456
-0.024980452 -0.013877411 -0.021428673 0.2235044 -0.031356946 0.11535165 -0.072696604 0.14154069
-0.053593393 0.0128119895 -0.022338 0.026955202 0.0678134 -0.14186704 -0.043935996 -0.131883
-0.021470353 0.006472915 -0.016491566 -0.028721947 -0.01575684 -0.19559912 -0.1672627 0.124539346
0.004380812 -0.0051965523 -0.00080719654 -0.0011092748 -3.456665e-05 -0.001851201 -0.00068902987 -0.0037748755
0.0021290793 8.189918e-05 -0.001546585 0.0012927847 -0.0011114001 0.00052397023 -0.0020745434 0.002399625
-0.0015487943 -0.0019292585 0.0024160182 0.0005372381 -0.0054185833 -0.0027692397 -0.00056447554 -0.0004177102
0.001616382 0.00018657967 0.0019093169 0.00020806992 -0.0013189134 -0.006018721 0.0039046777 -0.00036034055
-0.14304855 -0.0034714593 0.091493554 -0.15032844 0.04656049 -0.103317246 0.15701227 -0.031633645
0.07403605 0.04072359 0.054245934 -0.08508109 -0.0073713236 -0.10418255 0.048551757 -0.060241938
0.010634025 -0.047014628 0.018122636 -0.15417333 -0.13477041 0.0277315 -0.059999056 0.20912156
0.021474497 -0.030340256 0.011524408 0.09827053 0.016550072 0.17747326 0.047602646 -0.004187354
-0.020329487 -0.004899503 0.006978354 0.01868652 0.0031699445 -0.066647455 -0.020892164 0.005228993
0.00780181 -0.020371689 0.026435312 -0.041076414 -0.032422267 0.02141744 -0.0025197337 -0.01097783
0.027483035 0.016380038 -0.00015427479 0.021420417 0.01221814 -0.0071310564 0.010037919 -0.013490423
0.0019890592 0.006415838 -0.001562909 -0.045151893 0.00714435 0.038169153 0.035170466 -0.0051597073
-0.009007779 -0.009867364 -0.013454027 0.0064045233 0.036138665 -0.01910396 0.0011041565 -0.017421495
0.0017020844 0.0031034374 0.0026306622 -0.019996645 -0.0069676293 -0.0057737655 0.00494809 -0.024722515
0.0020010509 0.0011692274 0.0017283218 -0.0027137978 -0.009279486 0.0075517874 0.0087258695 -0.0017850683
0.003968395 0.0028545863 0.005512343 -0.01184575 0.007425134 0.012775181 -0.0008309608 -0.0070325774
0.0021538914 0.005495832 0.0056310655 0.0030062352 0.0010810841 0.0022686196 -0.0057094833 0.0045749615
-0.0007145782 0.002284267 0.0010762375 -0.005556627 -0.0022026496 0.0030776458 -0.00022551943 0.0022656084
0.0018871431 0.0012590329 -0.0009106577 -0.0054398305 0.0029736827 0.0059719943 -0.028398704 -0.00076588476
0.00040679047 0.005147089 -0.000374526 0.004770402 -0.00023795606 -0.019848857 0.0056458726 0.00074895157
00000000: 0c70 0000 e833 2e26 132e 4a00 b2d3 b3aa
00000010: ff38 4500 1861 52b4 92e8 1b00 2ea1 5fab
00000020: 5dd8 2400 f4fb 86b4 e7e1 1800 9f1d 0d27
00000030: 9a39 7031 5d8b 2c80 502c 7d2d 72b2 6280
00000040: 65e5 6314 0e47 0d80 d001 3eb7 b8c6 3bb5
00000050: 5c48 0200 be5d 2d80 1eb6 1f00 047b 1100
00000060: 0f92 1080 8c2f 19a7 4f2a 1980 9858 0180
00000070: 8dbb 0a80 fa1c 2500 58c0 1480 2e3d 0800
00000080: 6f11 743d 0a10 203d 4b1b 123c a1d0 cc3c
00000090: 5d4a 18bd 3966 de3c e932 a2bd da82 41bd
000000a0: e06a 34bc 0a2c aa3c cd77 0abd 9ba9 363c
000000b0: 00e5 5eb7 2ae8 ff3c b185 87bd 339d 303d
000000c0: 8c4a ddbc 791b cbbb fc14 853b 29eb 143d
000000d0: e295 5c3d a071 e0bc de91 4dbc 4ea7 f7bc
000000e0: 1c98 043c 0780 21bc c02c 783b 68ed 443c
000000f0: a0bd ab3a e47b 52bd c5e7 8cbc 3d30 183d
00000100: 4d37 a03c 3f2a 343d cd96 0b3c 06f7 013e
00000110: ac86 44bd 1b54 c93d 9cb9 4dbd 6e41 25bd
00000120: cea3 ccbc 155e 63bc 2f8b afbc 56de 643e
00000130: 2470 00bd 7c3d ec3d f5e1 94bd 0bf0 103e
00000140: bf84 5bbd 61e9 513c 2efe b6bc 28d1 dc3c
00000150: c0e1 8a3d 9845 11be 3bf6 33bd 560c 07be
00000160: 98e2 afbc bf1a d43b 5219 87bc 4a4a ebbc
00000170: 7d14 81bc 234b 48be ea46 2bbe 7c0e ff3d
00000180: ea8c 8f3b d747 aabb 0b9a 53ba 1665 91ba
00000190: a8fb 10b8 00a4 f2ba 03a0 34ba e763 77bb
000001a0: 0688 0b3b 4ac1 ab38 c8b6 caba a872 a93a
000001b0: 66ac 91ba 0c5b 093a 10f5 07bb 0743 1d3b
000001c0: ea00 cbba 2cdf fcba 0f56 1e3b 70d5 0c3a
000001d0: 5f8e b1bb 227c 35bb 50f9 13ba 1d00 dbb9
000001e0: c8dc d33a 99a4 4339 0b42 fa3a 582d 5a39
000001f0: 64df acba b138 c5bb 9fe5 7f3b 17ec bcb9
00000200: 527b 12be 6c81 63bb f960 bb3d b3ef 19be
00000210: 36b6 3e3d fe97 d3bd d3c7 203e 4892 01bd
00000220: 36a0 973d c7cd 263d fc30 5e3d ff3e aebd
00000230: 258b f1bb a95d d5bd 35de 463d 40c0 76bd
00000240: 553a 2e3c 6992 40bd ec75 943c 9ddf 1dbe
00000250: 4101 0abe 2c2d e33c 92c1 75bd f623 563e
00000260: 49eb af3c 218c f8bc dfd0 3c3c 0f42 c93d
00000270: 0494 873c 8dbb 353e fefa 423d 1236 89bb
00000280: 068a a6bc 038c a0bb adaa e43b 7914 993c
00000290: d8be 4f3b 767e 88bd 0b26 abbc f957 ab3b
000002a0: 53a6 ff3b 87e2 a6bc de8e d83c be3f 28bd
000002b0: 36cd 04bd a173 af3c 1e22 25bb 5bdc 33bc
000002c0: 1a24 e13c 6e2f 863c d3c4 21b9 df79 af3c
000002d0: 982e 483c a3ab e9bb 1576 243c ef06 5dbc
000002e0: e05a 023b f33b d23b 86da ccba 31f1 38bd
000002f0: 271b ea3b 4257 1c3d e80e 103d c312 a9bb
00000300: 5d95 13bc b9aa 21bc 476e 5cbc 09dd d13b
00000310: 2306 143d e87f 9cbc 58b9 903a 86b7 8ebc
00000320: 7a18 df3a 0a63 4b3b 3067 2c3b 01d0 a3bc
00000330: b650 e4bb db31 bdbb 9623 a23b df86 cabc
00000340: 1024 033b c340 993a db88 e23a f9d9 31bb
00000350: fc08 18bc fc74 f73b f3f6 0e3c f4f8 e9ba
00000360: 4f09 823b 0314 3b3b e2a0 b43b ad14 42bc
00000370: 8a4e f33b fe4e 513c d6d4 59ba 8971 e6bb
00000380: 4d28 0d3b 6116 b43b cd84 b83b 4204 453b
00000390: 2ab3 8d3a 1fad 143b 9e16 bbbb 8fe9 953b
000003a0: 8852 3bba a4b3 153b 8a10 8d3a 5e14 b6bb
000003b0: 545a 10bb 54b2 493b 6979 6cb9 9a7a 143b
000003c0: 045a f73a 2206 a53a 34b9 6eba 9b40 b2bb
000003d0: 1ee2 423b b8b0 c33b 66a4 e8bc a8c5 48ba
000003e0: 7e46 d539 e9a8 a83b 075c c4b9 0851 9c3b
000003f0: d883 79b9 129a a2bc 0301 b93b 4a55 443a

bert.embeddings.inti_pos_embeddings.weight f4 [100, 32]
-0.22949752 -0.14084859 -0.24467583 0.10115512 0.18394268 0.14661378 -0.1451136 -0.33299696
0.3286759 -0.2220598 -0.012793829 0.1438573 -0.2509643 0.15918742 0.21879034 -0.1871706
-0.12649845 0.365046 0.030405981 0.17137787 0.049795814 0.25027224 0.06674438 -0.15183102
0.042052917 0.4741693 0.040619034 -0.34553754 0.3317427 -0.19393376 -0.012517568 -0.28390417
0.06132318 -0.032433268 -0.019105086 -0.0145075405 -0.038004015 -0.010419789 0.008894299 0.04488282
-0.005971187 0.051443413 -0.024939831 0.008465596 0.010662091 0.005722234 -0.04631665 0.045535337
0.010763203 -0.113918215 -0.009068788 -0.021871326 0.028900253 -0.12459931 -0.03519925 0.018099817
-0.013230999 -0.022187505 -0.008045725 0.010206328 -0.05128278 0.16352439 -0.006414118 0.03901382
0.1451424 0.12704828 0.13823316 -0.06902149 -0.104341395 -0.15174004 0.0945723 0.08096872
-0.12015992 0.106490046 -0.004459487 -0.09857331 0.08557037 -0.1025538 -0.13329959 0.07666139
0.12547073 -0.0732494 -0.007622381 -0.08580857 0.02654143 -0.16009335 0.006096866 0.037387166
0.0026775573 -0.15326636 -0.0003633973 0.10147619 -0.11605126 0.18834333 -0.025702717 0.117384315
0.08730079 0.071513005 0.08577739 -0.12319223 -0.063058436 -0.1371367 0.23127234 0.16338257
-0.24634457 0.050476763 0.031233069 -0.07560388 0.12125285 -0.07897575 -0.08377085 -0.010302453
0.1308668 -0.097221896 -0.012062785 -0.16363199 -0.06616173 -0.0796725 -0.03625391 0.17096597
-0.014895045 -0.14764304 -0.01531227 0.12709314 -0.12936363 0.21051909 0.042859513 0.07684462
0.12749968 0.08356386 0.085069984 -0.11168038 -0.14405967 -0.17922284 0.11108258 0.21055172
-0.104947574 0.107368715 -0.04247387 -0.07627958 0.10015524 -0.07469032 -0.14989163 0.14294256
0.11128471 -0.11893827 0.0006319091 -0.071861364 0.009220087 -0.21940088 -0.05803339 0.16734673
0.0018702237 -0.20690693 0.0015789127 0.10516066 -0.094731726 0.2030558 -0.04638652 0.13989845
0.08505214 0.08614205 0.084103726 -0.059399664 -0.13461874 -0.10557222 0.14488207 0.13348836
-0.08475362 0.035229973 0.035717927 -0.15424362 0.09907722 -0.13816714 -0.10950247 0.050515108
0.045995373 -0.111858435 -0.02287692 -0.05422669 -0.008257713 -0.1044282 -0.091350354 0.15443166
-0.026266461 -0.13757828 -0.021228133 0.15446988 -0.12703899 0.23743856 -0.002953351 0.07517062
-3.699169e-39 1.0002733e-38 -1.406685e-39 5.69248e-39 6.6804716e-14 3.2901078e-16 -0.00025283522 -6.1559e-39
-2.95636e-40 7.666041e-13 -4.019655e-39 2.3429427e-38 7.06923e-32 1.413263e-07 8.891402e-16 -9.0594476e-05
5.3293e-41 6.076253e-39 9.922866e-12 7.638623e-06 -9.9496106e-08 -1.6420862e-25 -8.95039e-40 -1.3013734e-34
-7.8359243e-31 -1.6581477e-27 1.7207292e-15 -2.83679e-40 -3.237535e-06 -2.146702e-29 -3.244837e-39 -3.4943145e-34
9.01817e-40 -1.216242e-15 -4.98565e-40 2.2211474e-15 3.473981e-39 -3.231065e-39 -8.01318e-39 6.8154395e-07
4.176642e-39 1.303071e-15 -3.926078e-39 -2.05998e-13 -2.725898e-39 1.1081296e-09 -3.9601943e-08 1.005418e-39
5.673245e-39 7.2224833e-07 4.905694e-39 -3.816079e-39 2.296641e-39 2.1204434e-09 4.325559e-39 -9.020806e-39
2.156649e-39 1.015818e-39 4.197044e-11 -2.7807916e-09 9.208899e-14 -7.093589e-39 2.63996e-40 -6.571138e-12
00000000: 6601 6bbe 9d3a 10be 4d8c 7abe 6a2a cf3d
00000010: 785b 3c3e ec21 163e a998 14be 947e aabe
00000020: 3548 a83e a563 63be 359d 51bc 544f 133e
00000030: 657e 80be 0702 233e 930a 603e a6a9 3fbe
00000040: cf88 01be 4fe7 ba3e f715 f93c ae7d 2f3e
00000050: b2f6 4b3d af23 803e 47b1 883d 9779 1bbe
00000060: ae3f 2c3d 52c6 f23e 2560 263d 4cea b0be
00000070: 2eda a93e 9296 46be 7c16 4dbc e35b 91be
00000080: 042e 7b3d bfd8 04bd 4582 9cbc 09b1 6dbc
00000090: 19aa 1bbd c3b7 2abc 65b9 113c 0cd7 373d
000000a0: f2a9 c3bb 54b6 523d 9e4e ccbc 48b3 0a3c
000000b0: 0db0 2e3c 9481 bb3b 87b6 3dbd 4383 3a3d
000000c0: 2558 303c f44d e9bd 4195 14bc 7f2b b3bc
000000d0: 39c0 ec3c ec2d ffbd 172d 10bd 1146 943c
000000e0: d5c6 58bc 92c2 b5bc 37d2 03bc 7138 273c
000000f0: e40d 52bd f072 273e 862d d2bb f5cc 1f3d
00000100: 36a0 143e f218 023e fe8c 0d3e 245b 8dbd
00000110: f1b0 d5bd be61 1bbe 1faf c13d eed2 a53d
00000120: 6716 f6bd 7417 da3d e320 92bb cee0 c9bd
00000130: 853f af3d ba07 d2bd b07f 08be a600 9d3d
00000140: 667b 003e c803 96bd 2bc5 f9bb 67bc afbd
00000150: 6a6d d93c 83ef 23be 38c8 c73b 4923 193d
00000160: f579 2f3b dbf1 1cbe 5c86 beb9 c0d2 cf3d
00000170: 48ac edbd 13dd 403e 818e d2bc 3067 f03d
00000180: c2ca b23d 6975 923d 0eac af3d 354c fcbd
00000190: c824 81bd 906d 0cbe a8d2 6c3e c34d 273e
000001a0: c041 7cbe b9c0 4e3d 7edc ff3c 35d6 9abd
000001b0: 6a53 f83d 0abe a1bd 0d90 abbd 9fcb 28bc
000001c0: f201 063e 461c c7bd fda2 45bc 258f 27be
000001d0: cd7f 87bd 562b a3bd fb7e 14bd b411 2f3e
000001e0: 590a 74bc bd2f 17be 51e0 7abc b424 023e
000001f0: e677 04be 5192 573e 758d 2f3d b660 9d3d
00000200: 478f 023e 8723 ab3d 2c39 ae3d afb8 e4bd
00000210: 6184 13be 3186 37be 447f e33d df9a 573e
00000220: c1ee d6bd 21e4 db3d 15f9 2dbd 7838 9cbd
00000230: 311e cd3d 3df7 98bd 317d 19be 895f 123e
00000240: 3de9 e33d e895 f3bd b4a6 253a 0d2c 93bd
00000250: d90f 173c a0aa 60be 6cb4 6dbd f15c 2b3e
00000260: 4b22 f53a 69df 53be 85f3 ce3a 795e d73d
00000270: b502 c2bd dced 4f3e cbff 3dbd 8a41 0f3e
00000280: d12f ae3d 3e6b b03d 933e ac3d 104d 73bd
00000290: 7fd9 09be 4036 d8bd f75b 143e 2cb1 083e
000002a0: 4e93 adbd 4e4d 103d f64c 123d 0af2 1dbe
000002b0: ffe8 ca3d b07b 0dbe d542 e0bd eee8 4e3d
000002c0: a565 3c3d 0916 e5bd 6168 bbbc ce1c 5ebd
000002d0: 5c4b 07bc 74de d5bd e515 bbbd 5523 1e3e
000002e0: c32c d7bc 52e1 0cbe 9fe6 adbc 5a2d 1e3e
000002f0: 8216 02be 1823 733e 028d 41bb 0ef3 993d
00000300: c747 2880 8deb 6c00 4451 0f80 51fc 3d00
00000310: 4c6e 9629 6ca9 bd25 f88e 84b9 2508 4380
00000320: 1d38 0380 a6c7 572b 2ac5 2b80 b61f ff00
00000330: 1887 b70b 7abf 1734 7c23 8026 8afd bdb8
00000340: 8f94 0000 1f2a 4200 9e90 2e2d a327 0037
00000350: 90aa d5b3 ca47 4b96 01bf 0980 71fb 2c87
00000360: 504a 7e8d 3b5f 0393 b4fb f726 c816 0380
00000370: 6e44 59b6 92b3 d98f 4955 2380 ae3c e887
00000380: e6d1 0900 6947 afa6 cc6d 0580 f00c 2027
00000390: 0cd4 2500 e52e 2380 7c41 5780 58f3 3635
000003a0: c77a 2d00 d6ca bb26 4fc0 2a80 e2ee 67aa
000003b0: b2ae 1d80 d84c 9830 cc16 2ab3 b2f2 0a00
000003c0: b3c6 3d00 87e0 4135 146b 3500 ad8d 2980
000003d0: 1a02 1900 3cb7 1131 e619 2f00 563a 6280
000003e0: dc7b 1700 b00f 0b00 8496 382e 3418 3fb1
000003f0: b05d cf29 0a3e 4d80 eadf 0200 8d33 e7ac

bert.embeddings.hop_dis_embeddings.weight f4 [100, 32]
-0.21731529 -0.13813522 -0.24489288 0.09167398 0.17563866 0.13921237 -0.13378288 -0.33313364
0.32772744 -0.22212306 -0.0066180904 0.15034348 -0.24612351 0.1558178 0.21652433 -0.17820677
-0.124279775 0.36429414 0.03010364 0.1587426 0.05527684 0.2531703 0.06641329 -0.15260637
0.04196989 0.47795966 0.040869415 -0.34513992 0.3314803 -0.1969095 -0.015828831 -0.28535673
0.5073001 0.3960913 0.4136427 -0.37259796 -0.34820163 -0.5611505 0.513044 0.54228145
-0.6345459 0.37299985 0.033319145 -0.45881528 0.41999665 -0.3971404 -0.39207256 0.33008957
0.38850144 -0.5616593 -0.019273277 -0.44066188 -0.098944195 -0.565694 -0.038788147 0.5302527
-0.03127645 -0.59618354 -0.030035498 0.5345735 -0.5432794 0.7772285 0.027838806 0.45052433
0.009286044 7.3275105e-06 0.0071782055 -0.076901264 -0.010146877 -0.048020195 0.11396643 0.10669679
-0.044810794 -0.0034444013 0.029443406 -0.011344434 -0.0019243837 -0.06584755 -0.045195747 -0.0051937234
0.0062965094 0.0033490323 0.0024485255 -0.025149092 -0.025467629 -0.056762602 0.00024211282 0.15217637
0.0025485284 -0.14946939 0.0011958753 0.10468216 -0.012984878 0.0061409688 0.0077482737 0.038405407
2.6233982e-05 0.00010425766 4.787888e-05 7.2529394e-05 -3.096411e-05 5.016e-05 -8.815875e-05 -2.3502806e-05
-2.461639e-05 1.428563e-05 -1.37986135e-05 -7.1830334e-05 1.641166e-05 -0.00019078853 1.0730459e-05 8.8637215e-05
0.00011539697 2.5306186e-05 -3.0397694e-05 -0.00014425973 -4.86729e-05 -2.6287149e-05 -0.00012475914 7.961688e-05
1.486913e-05 -6.358176e-05 -2.8848135e-05 2.6106186e-06 -5.9546765e-06 0.00024561354 3.3416098e-05 5.662212e-05
2.127453e-39 8.8908593e-38 1.3949233e-09 -8.76643e-40 -3.790035e-39 -8.50343e-15 8.714705e-39 1.165704e-39
2.220628e-39 -1.0673199e-38 1.392575e-39 -1.2587702e-11 8.449286e-39 -4.60771e-39 -4.001842e-16 2.164912e-39
-3.5705746e-14 6.281624e-10 -2.164817e-39 6.787901e-39 -1.765814e-37 9.840969e-39 6.468223e-39 1.639177e-39
-1.2994812e-38 -4.734843e-39 0.0005313607 4.245626e-39 2.382639e-39 5.1278326e-16 -4.27158e-40 6.14914e-40
-8.98026e-40 -7.3263254e-06 -3.227532e-39 8.6878e-41 -6.802945e-39 -0.0015099738 -7.34223e-40 -1.780661e-39
-7.109836e-17 2.702824e-39 -1.0272306e-06 -1.571024e-39 7.071622e-39 -3.6828357e-15 -3.5459006e-38 2.6350958e-38
6.698692e-07 -2.171542e-39 -1.122677e-39 5.728912e-39 -6.136933e-06 -2.47112e-40 -1.4995848e-38 1.78213e-40
-3.092269e-39 -8.271819e-39 1.633452e-39 -1.0561533e-38 3.9723114e-28 1.726324e-39 -4.362925e-05 3.05312e-40
3.145717e-13 5.3681614e-38 5.738754e-39 -1.1821449e-13 2.22103e-39 -1.422996e-39 1.1707508e-15 -2.94428e-39
1.4866538e-07 -1.3220977e-15 3.2007847e-12 -4.11825e-39 -1.944575e-39 5.830032e-39 -3.9759238e-12 9.28486e-40
3.249161e-38 6.808273e-09 -8.748099e-39 2.90893e-39 1.246211e-39 -4.757656e-39 -2.789e-41 1.509864e-39
3.812279e-39 2.077638e-39 -8.744094e-39 -3.880423e-16 4.46096e-40 1.548496e-39 7.252122e-39 1.788649e-38
2.3071494e-11 -7.5672446e-10 9.0242e-41 -8.67704e-40 4.0354682e-15 -1.554952e-39 -3.3149102e-36 -4.0559628e-38
1.607326e-39 1.50596e-40 7.118988e-11 4.86887e-39 8.939425e-08 -4.37875e-40 7.67456e-39 5.3949795e-35
0.00080643245 3.031643e-39 -4.665896e-39 5.610663e-39 -9.81088e-40 5.918613e-10 -2.573417e-39 -1.647954e-39
2.630997e-39 -2.846603e-39 9.099204e-13 4.5165688e-10 1.8492159e-36 2.421507e-39 -9.16292e-40 1.0061515e-38
00000000: e687 5ebe 5273 0dbe 33c5 7abe 91bf bb3d
00000010: 9fda 333e b08d 0e3e 61fe 08be 7e90 aabe
00000020: e4cb a73e 3a74 63be 91dc d8bb a4f3 193e
00000030: cd07 7cbe b48e 1f3e 8eb8 5d3e d67b 36be
00000040: 6586 febd c384 ba3e e99b f63c 6c8d 223e
00000050: f869 623d 8a9f 813e b103 883d d844 1cbe
00000060: 9fe8 2b3d 21b7 f43e b066 273d 2eb6 b0be
00000070: c9b7 a93e a5a2 49be 77ab 81bc 471a 92be
00000080: 6bde 013f 7bcc ca3e fac8 d33e 29c5 bebe
00000090: 7c47 b2be 8fa7 0fbf da56 033f f5d2 0a3f
000000a0: 9a71 22bf d6f9 be3e a879 083d d6e9 eabe
000000b0: cd09 d73e fd55 cbbe bcbd c8be 8001 a93e
000000c0: a9e9 c63e e7c8 0fbf fee2 9dbc 6f9e e1be
000000d0: 41a3 cabd 52d1 10bf 52e0 1ebd a4be 073f
000000e0: bc1b 00bd 7c9f 18bf 010d f6bc cfd9 083f
000000f0: 5c14 0bbf 72f8 463f 350e e43c 20ab e63e
00000100: 7e24 183c d6de f536 2737 eb3b 697e 9dbd
00000110: 163f 26bc d3b0 44bd 3b67 e93d d983 da3d
00000120: 868b 37bd 77bb 61bb 4c33 f13c 01de 39bc
00000130: 9a3b fcba 15db 86bd 2d1f 39bd 1c30 aabb
00000140: f352 ce3b 707b 5b3b 7177 203b 7805 cebc
00000150: 7da1 d0bc e77f 68bd aadf 7d39 1fd4 1b3e
00000160: 3605 273b 810e 19be ebbe 9c3a 9a63 d63d
00000170: 87be 54bc 2e3a c93b 3be5 fd3b fd4e 1d3d
00000180: 0c11 dc37 e8a4 da38 8ed1 4838 ec1a 9838
00000190: 76df 01b8 e462 5238 dee1 b8b8 e427 c5b7
000001a0: 4c7f ceb7 50ac 6f37 9880 67b7 9ea3 96b8
000001b0: c6ab 8937 680e 48b9 f806 3437 bee2 b938
000001c0: 4701 f238 9f48 d437 8dfe feb7 6d44 17b9
000001d0: 2126 4cb8 3983 dcb7 c7d1 02b9 fdf7 a638
000001e0: 6d76 7937 3357 85b8 e6fe f1b7 1632 2f36
000001f0: 48ce c7b6 b1c5 8039 4328 0c38 8a7d 6d38
00000200: 792a 1700 3f08 f201 80b7 bf30 b98b 0980
00000210: 1345 2980 262f 19a8 0de5 5e00 82b1 0c00
00000220: 352e 1800 8938 7480 ef29 0f00 f871 5dad
00000230: 2c01 5c00 6c2c 3280 c4b0 e6a5 e592 1700
00000240: eccd 20a9 00ab 2c30 a192 1780 e8e9 4900
00000250: a359 7082 9e28 6b00 c66e 4600 5cd9 1100
00000260: 4080 8d80 d18e 3380 034b 0b3a 143b 2e00
00000270: d4f1 1900 bacc 1326 bea6 0480 21b2 0600
00000280: 55c7 0980 a8d4 f5b6 0c25 2380 2ef2 0000
00000290: d813 4a80 50ea c5ba b7fe 0780 c263 1380
000002a0: 10f1 a3a4 606e 1d00 60df 89b5 601b 1180
000002b0: ce00 4d00 2ab0 84a7 a40e 4181 e077 0f01
000002c0: 10d1 3335 60a5 1780 9139 0c80 e061 3e00
000002d0: daeb cdb6 d9b0 0280 534a a380 c9f0 0100
000002e0: fdab 2180 7712 5a80 66c9 1100 4201 7380
000002f0: 70c6 fb11 4acc 1200 8dfe 36b8 1653 0300
00000300: 8f16 b12a a022 9201 507d 3e00 0219 05aa
00000310: 542f 1800 bc7e 0f80 15b9 a826 740f 2080
00000320: d4a0 1f34 cc88 bea6 363c 612c 01d8 2c80
00000330: af2c 1580 c27b 3f00 f0e3 8bac 3e1c 0a00
00000340: b2e6 3001 34ee e931 2442 5f80 eaac 1f00
00000350: ee91 0d00 69ce 3380 bf4d 0080 e370 1000
00000360: 1583 2900 9c9f 1600 fa36 5f80 f0b0 dfa5
00000370: 89db 0400 94dc 1000 f7f7 4e00 42c4 c200
00000380: 63f0 ca2d c001 50b0 8ffb 0000 ce72 0980
00000390: a064 9127 93ee 1080 2d00 8d84 dfd3 5c81
000003a0: 9280 1100 cda3 0100 578c 9c2e 6e04 3500
000003b0: 02f9 bf33 9ec4 0480 8d91 5300 546c 8f06
000003c0: c466 533a fd02 2100 9fce 3280 3f18 3d00
000003d0: e0ae 0a80 89b0 2230 a405 1c80 d3f1 1180
000003e0: 26a6 1c00 2cff 1e80 560f 802b 0e4d f82f
000003f0: 5b50 1d04 2d5e 1a00 40fa 0980 698f 6d00

bert.embeddings.LayerNorm.weight f4 [32]
0.558942 0.51275915 0.5448599 0.55298984 0.63489985 0.63732547 0.68808186 0.536333
0.3978959 0.4379299 0.5459974 0.61020833 0.5070452 0.46427935 0.6175225 0.5480558
0.4993214 0.4481125 -0.012447256 0.5398958 0.4358799 0.5097251 0.0916792 0.6028821
0.07948274 0.6348473 0.00965756 0.6099262 0.46784824 0.67086715 0.5403069 0.504386
00000000: d316 0f3f 2f44 033f f07b 0b3f be90 0d3f
00000010: cc88 223f c327 233f 2226 303f 1f4d 093f
00000020: 03b9 cb3e 5938 e03e 7cc6 0b3f 9d36 1c3f
00000030: b7cd 013f 06b6 ed3e f415 1e3f 634d 0c3f
00000040: 0ea7 ff3e 006f e53e 93ef 4bbc 9c36 0a3f
00000050: a62b df3e 587d 023f 4ec2 bb3d 7b56 1a3f
00000060: d9c7 a23d 5a85 223f be3a 1e3c 2024 1c3f
00000070: ce89 ef3e f3bd 2b3f 8e51 0a3f 711f 013f

bert.embeddings.LayerNorm.bias f4 [32]
0.24384472 0.19181797 0.21402612 -0.17978081 -0.17583671 -0.20543605 0.2127914 0.059510276
-0.04732521 0.22111174 -0.0066686124 -0.041658826 0.049981665 -0.16583697 -0.22538285 0.19046623
0.12250476 -0.032132518 0.32775387 -0.15360644 0.020856809 -0.30102912 -0.045571 0.17289023
0.030275518 0.029203154 0.39368945 -0.014392434 -0.0633931 0.13750596 -0.08555077 0.3314185
00000000: 6eb2 793e ee6b 443e aa29 5b3e 7618 38be
00000010: 8a0e 34be d45d 52be fde5 593e 0cc1 733d
00000020: 14d8 41bd 1e6b 623e 6084 dabb 72a2 2abd
00000030: 93b9 4c3d 2bd1 29be c3ca 66be 9409 433e
00000040: c7e3 fa3d 639d 03bd 5bcf a73e 024b 1dbe
00000050: e6db aa3c 7d20 9abe a8a8 3abd 230a 313e
00000060: 5d04 f83c 743b ef3c aa91 c93e 3ece 6bbc
00000070: 3ed4 81bd 5dce 0c3e 3e35 afbd b0af a93e

bert.encoder.layer.0.attention.self.query.weight f4 [32, 32]
-0.00070147536 0.0012426381 -8.500656e-05 0.0006758524 0.0014046048 -0.0037704634 -8.5687054e-05 -0.0018278575
0.00013829913 0.0018559259 -0.0015905751 -0.0016217219 -0.000286565 -0.000744697 -0.0015994045 0.0034055838
0.0018457766 7.5360855e-05 0.0019168626 -0.00022719565 -0.00025383144 -4.2481457e-05 0.00012737463 -0.0023486647
3.815896e-05 0.006198565 0.0022598957 -0.0029648114 -0.0014611314 -0.0065206187 -0.0016125045 0.00144224
-0.00083849404 -0.00016020161 -0.00047823848 0.0006385593 0.00087524153 -0.00042579733 -0.00060680934 -0.00062882557
0.00030413477 1.9079265e-05 -0.00019271679 5.8607395e-05 -0.0003785227 0.00024698378 0.0001728265 0.00029052515
-0.00032230097 0.0004126937 0.00018969904 0.00034836069 -0.00010721934 0.0005170522 3.9403636e-05 -0.0015170842
-5.488479e-05 0.0014801577 9.6064774e-05 -0.0010558782 -8.516717e-05 -0.0028119031 -9.661042e-05 7.9900914e-05
0.0019936513 0.0052387523 0.0024549256 -0.0012805524 -0.001016454 -0.009107986 0.00223645 -0.0036874553
-0.00071607984 0.00676563 -0.0046070064 -0.005408501 0.00043231866 -0.0036170522 -0.0067353374 0.009795293
0.008629205 -0.0019954764 0.005400599 -0.0026517848 -0.00013416872 -0.003145378 0.0002872638 -0.0008612597
0.0007272621 0.013251875 0.0083663445 -0.0047360295 -0.00410499 -0.0076159067 -0.0053666118 0.0046490855
-0.07162308 -0.08056216 -0.06099259 0.059119225 0.091060475 0.0844876 -0.06933375 0.015073054
0.031064726 -0.102297254 0.041694608 0.06682965 -0.018953219 0.06389983 0.1007497 -0.09694154
-0.12322056 0.047015075 -0.07549144 0.06529701 -0.01738965 0.11150367 0.0008427457 -0.06740412
-0.01613175 -0.08163938 -0.10996312 0.00048296503 0.05137352 -0.053110726 0.045513548 -0.06909092
0.1692493 0.1668238 0.12811752 -0.11996226 -0.20392895 -0.18800938 0.16478823 -0.0060364897
-0.07799478 0.21169996 -0.06202211 -0.12809545 0.040651616 -0.14091805 -0.20061626 0.17556983
0.22306353 -0.08454846 0.16565154 -0.13904426 0.032459058 -0.26289153 -0.0015267024 0.15245698
0.038380966 0.12464261 0.24332699 0.015134288 -0.10600837 0.15570492 -0.083082415 0.16580011
0.048550617 0.05795041 0.042533 -0.041610155 -0.059766866 -0.060522333 0.046034772 -0.013336901
-0.020104382 0.07118629 -0.032773226 -0.049162343 0.013422572 -0.04403982 -0.07231746 0.073078856
0.090183064 -0.034543343 0.052572593 -0.045214403 0.010696506 -0.07349446 -0.0008758808 0.045394894
0.010299994 0.06431197 0.07483526 -0.0031718514 -0.0362356 0.029378222 -0.03453483 0.047489434
-0.00048597122 -0.0001528023 -0.00022696273 0.00033482054 0.00050209544 -0.0001650113 -0.00042196078 -0.00037935597
0.00019092794 -2.5796028e-06 -7.632146e-05 0.00014495026 -0.00024973607 0.00017348546 0.00013715733 0.00011583755
-0.000270435 0.00024324094 3.7115704e-05 0.0002261116 -4.813019e-05 0.000405045 2.8643062e-05 -0.00084719766
-3.7864167e-05 0.0007506942 8.530764e-05 -0.00056050456 -2.8451292e-05 -0.0013912462 -2.6384294e-05 1.0067029e-06
0.14347091 0.14644563 0.111185536 -0.10670233 -0.17691757 -0.16103324 0.1403439 -0.010150464
-0.06650314 0.18567073 -0.060227398 -0.113909975 0.035487916 -0.12171137 -0.17609797 0.15717106
0.20256867 -0.07759975 0.14163144 -0.122365735 0.029451067 -0.22455908 -0.0027444914 0.13112263
0.0323317 0.11607912 0.20839636 0.011127464 -0.09383897 0.12803169 -0.075275496 0.13951653
00000000: 37e3 37ba 04e0 a23a 8d45 b2b8 b02b 313a
00000010: b71a b83a e119 77bb e3b2 b3b8 b894 efba
00000020: 6404 1139 8a42 f33a d87a d0ba f58f d4ba
00000030: 1a3e 96b9 c537 43ba 1ca3 d1ba 3730 5f3b
00000040: fced f13a 0d0b 9e38 3c3f fb3a 5e3b 6eb9
00000050: ae14 85b9 1e2e 32b8 de8f 0539 0eec 19bb
00000060: df0c 2038 551d cb3b c21a 143b 484d 42bb
00000070: 6f83 bfba eaaa d5bb ac5a d3ba 8b09 bd3a
00000080: 62ce 5bba cbfb 27b9 15bc fab9 fd64 273a
00000090: 7770 653a 8d3d dfb9 4912 1fba c5d7 24ba
000000a0: 4774 9f39 690c a037 0514 4ab9 36d1 7538
000000b0: 7574 c6b9 9a7d 8139 c338 3539 a051 9839
000000c0: 81fa a8b9 d05e d839 f3e9 4639 2ea4 b639
000000d0: f2da e0b8 c98a 073a 5545 2538 e6d8 c6ba
000000e0: 1834 66b8 da01 c23a 6276 c938 6565 8aba
000000f0: c79b b2b8 e847 38bb 539b cab8 7a90 a738
00000100: eba7 023b d7a9 ab3b d1e2 203b 35d8 a7ba
00000110: 893a 85ba aa39 15bc 6891 123b 3ca9 71bb
00000120: 4eb7 3bba 38b2 dd3b 5ff6 96bb cb39 b1bb
00000130: d4a8 e239 110c 6dbb 1bb4 dcbb 707c 203c
00000140: 8261 0d3c 8ac6 02bb 82f7 b03b 91c9 2dbb
00000150: a4af 0cb9 b022 4ebb e59b 9639 29c6 61ba
00000160: bca5 3e3a 641e 593c fe12 093c b230 9bbb
00000170: 2783 86bb db8e f9bb 67da afbb 5b57 983b
00000180: 1faf 92bd c6fd a4bd 5ed3 79bd 0027 723d
00000190: ea7d ba3d d607 ad3d dafe 8dbd f8f4 763c
000001a0: 747b fe3c 3981 d1bd f7c7 2a3d fcdd 883d
000001b0: c843 9bbc eadd 823d dc55 ce3d 4989 c6bd
000001c0: 105b fcbd e192 403d 429b 9abd 70ba 853d
000001d0: bd74 8ebc 095c e43d b5eb 5c3a 2c0b 8abd
000001e0: bb26 84bc 8c32 a7bd 5834 e1bd 7836 fd39
000001f0: 0a6d 523d a28a 59bd 6a6c 3a3d 8a7f 8dbd
00000200: b04f 2d3e dcd3 2a3e 3d31 033e c6ae f5bd
00000210: c0d2 50be 8885 40be 3fbe 283e bfcd c5bb
00000220: babb 9fbd e0c7 583e e50a 7ebd 742b 03be
00000230: 4f82 263d d24c 10be 596e 4dbe 94c8 333e
00000240: c46a 643e be27 adbd 8fa0 293e 9e61 0ebe
00000250: caf3 043d b899 86be a21b c8ba af1d 1c3e
00000260: 5c35 1d3d a044 ff3d b62a 793e cef5 773c
00000270: eb1a d9bd 1c71 1f3e 1d27 aabd 81c7 293e
00000280: 03dd 463d 695d 6d3d 1537 2e3d 696f 2abd
00000290: 1ace 74bd 44e6 77bd f58e 3c3d 0483 5abc
000002a0: f2b1 a4bc 1eca 913d 383d 06bd 745e 49bd
000002b0: 59ea 5b3c 1963 34bd 2d1b 94bd 5eaa 953d
000002c0: e6b1 b83d 527d 0dbd 5c56 573d bd32 39bd
000002d0: 6640 2f3c 4384 96bd 5e9b 65ba ffef 393d
000002e0: 4ec1 283c feb5 833d 3b43 993d d6de 4fbb
000002f0: c86b 14bd 99aa f03c 6574 0dbd 4884 423d
00000300: f4c9 feb9 8e39 20b9 d8fc 6db9 da8a af39
00000310: 0e9f 033a e206 2db9 9e3a ddb9 4ce4 c6b9
00000320: d433 4839 3d1d 2db6 c60e a0b8 cafd 1739
00000330: 02ef 82b9 a6e9 3539 e4d1 0f39 d0ed f238
00000340: 2cc9 8db9 7e0e 7f39 afac 1b38 5f18 6d39
00000350: 66df 49b8 385c d439 8246 f037 7916 5eba
00000360: 57d0 1eb8 3cca 443a 31e7 b238 d3ee 12ba
00000370: afaa eeb7 7a5a b6ba d753 ddb7 0c1e 8735
00000380: 0aea 123e d8f5 153e 3eb5 e33d c086 dabd
00000390: e129 35be e6e5 24be 50b6 0f3e 224e 26bc
000003a0: cc32 88bd 7820 3e3e 01b1 76bd a249 e9bd
000003b0: c75b 113d d043 f9bd 0753 34be 73f1 203e
000003c0: 296e 4f3e 9eec 9ebd d507 113e e39a fabd
000003d0: 5d43 f13c d1f2 65be eddc 33bb 0345 063e
000003e0: 3f6e 043d e4ba ed3d db65 553e f74f 363c
000003f0: a52e c0bd bd1a 033e 0a2a 9abd 6cdd 0e3e

bert.encoder.layer.0.attention.self.query.bias f4 [32]
0.010015742 0.0008828071 0.029756984 -0.37575272 0.74755603 0.2680331 0.00029479235 0.6563625
2.1913213e-05 -0.31740782 -0.00045489293 1.954675e-05 7.270253e-06 -0.11356918 0.10851686 0.08448173
0.38431126 -0.14021344 4.8214024e-06 0.0042976215 0.044836853 -0.0003669631 0.24547184 -0.40393773
0.5000568 -0.053427003 -0.03343561 0.037681393 -0.028127877 -0.044295035 0.6259463 -0.027253551
00000000: 1119 243c 2e6c 673a ebc4 f33c a962 c0be
00000010: d55f 3f3f a23b 893e 5c8e 9a39 5f07 283f
00000020: 44d2 b737 4783 a2be b27e eeb9 53f8 a337
00000030: fff2 f336 f596 e8bd 163e de3d c204 ad3d
00000040: 72c4 c43e 1d94 0fbe 88c7 a136 10d3 8c3b
00000050: d9a6 373d f464 c0b9 f85c 7b3e edd0 cebe
00000060: b903 003f 46d6 5abd c7f3 08bd ce57 1a3d
00000070: 6f6c e6bc b66e 35bd 043e 203f d742 dfbc

bert.encoder.layer.0.attention.self.key.weight f4 [32, 32]
-0.0006697012 -0.003308781 -0.0061628665 -0.00017230166 0.00096555403 0.004234222 -0.0072194804 -0.009433673
0.006230352 -0.00096832775 0.0023760449 0.0022772264 -0.007271055 -0.0018835586 0.010823682 -0.0047003697
0.010218588 0.0035025736 0.0062929774 0.0036675788 -0.0054275086 0.0020512263 -0.000121003206 -0.01008523
0.00036219522 0.015805345 -0.007763031 -0.004617805 0.0061646733 0.00794448 0.0068646283 -0.0030691247
0.00048329786 -0.0001740076 -0.0011700954 -0.00043404792 -0.00044543538 0.0011781674 -0.0017467128 -0.0016215662
0.0009783056 0.0006065999 0.00041244988 0.00018785222 -0.0016879538 -0.0008318561 0.0023805355 -0.00056040596
0.002748855 0.00016973125 0.0011369514 0.0009266621 -0.0014267982 -8.7796625e-06 -0.00011900661 -0.0023797266
-1.7456965e-05 0.0028781267 -0.0015882929 -0.0003638055 0.00020602372 0.0024046295 0.0010959188 -0.00030074109
-0.006261183 -0.01063303 -0.015051535 0.001572053 0.0055416888 0.009941652 -0.01593686 -0.023752667
0.013791438 -0.005425803 0.005526873 0.006427767 -0.016031362 -0.0017234504 0.023757115 -0.01301293
0.018390488 0.010682708 0.015100558 0.008900125 -0.010873575 0.0071290857 0.00029475073 -0.02080116
0.001380695 0.036763173 -0.016864154 -0.0138291195 0.017493533 0.011187217 0.013624604 -0.009553531
0.13102047 0.111466825 0.15550864 -0.039801087 -0.0925504 -0.11382459 0.13703474 0.21450573
-0.06740611 0.0922688 -0.041758228 -0.06506973 0.15086731 -0.04412251 -0.16984151 0.14493552
-0.063022405 -0.13793634 -0.103440166 -0.10681415 0.045298167 -0.114387535 -0.00996557 0.11863281
-0.018659059 -0.22203079 0.09747795 0.18764138 -0.14769386 0.055131048 -0.07044007 0.1352752
-0.24558495 -0.1973001 -0.304035 0.085742615 0.1770005 0.21242358 -0.24151714 -0.38255948
0.16143803 -0.1960112 0.06414055 0.12675117 -0.29344293 0.12473317 0.28834313 -0.2671014
0.051841054 0.29090613 0.15884905 0.21120512 -0.046323955 0.23380281 0.024372123 -0.19832143
0.037468456 0.35512197 -0.12046392 -0.39159837 0.28227684 -0.1416207 0.07597729 -0.2697633
-0.09294101 -0.08312789 -0.11141533 0.027521841 0.06596694 0.08096228 -0.10149641 -0.16031794
0.051778253 -0.06457555 0.032205086 0.047566675 -0.108340226 0.025688786 0.12984098 -0.10512674
0.056987274 0.09698933 0.08057785 0.07487632 -0.03960802 0.079605594 0.006813399 -0.09481258
0.01316838 0.18007961 -0.081038974 -0.12994777 0.11182399 -0.028213285 0.0620876 -0.09469632
0.00024780192 -4.8315134e-05 -0.00054818747 -0.00022409165 -0.0002859061 0.00061992067 -0.0009029093 -0.0007481683
0.0003814217 0.000369975 0.00017322444 4.2755095e-05 -0.00078264746 -0.00044887254 0.0011092946 -0.0001909607
0.0012823398 -3.2741827e-06 0.000478437 0.00046091757 -0.0007097836 -8.438925e-05 -6.358095e-05 -0.0011258107
-9.119849e-06 0.0013175961 -0.00074097805 -0.0001185052 -2.4477216e-05 0.0011016653 0.00041813267 -0.000121809564
-0.21945705 -0.1770248 -0.2683243 0.07437809 0.15647264 0.18940209 -0.21729508 -0.34257078
0.13389066 -0.16996466 0.059478633 0.111332096 -0.25921455 0.10362667 0.26098755 -0.23856793
0.05675126 0.25253376 0.14465135 0.18587188 -0.047582317 0.2052713 0.020891242 -0.17886336
0.032790605 0.32077396 -0.11652902 -0.34211418 0.24650314 -0.12115782 0.075954996 -0.23751165
00000000: e38e 2fba 22d8 58bb dff1 c9bb e0ab 34b9
00000010: 3c1d 7d3a 3bbf 8a3b 6491 ecbb b18f 1abc
00000020: fb27 cc3b 60d7 7dba 6bb7 1b3b 853d 153b
00000030: 0842 eebb bde1 f6ba d055 313c 8f05 9abb
00000040: dd6b 273c 6f8b 653b 5235 ce3b c35b 703b
00000050: 3ed9 b1bb de6d 063b 1ac3 fdb8 853c 25bc
00000060: 05e5 bd39 367a 813c 0661 febb f550 97bb
00000070: 0701 ca3b 9029 023c adf0 e03b 5e23 49bb
00000080: 2463 fd39 cf75 36b9 e35d 99ba ed90 e3b9
00000090: 5389 e9b9 bd6c 9a3a f5f1 e4ba bc8a d4ba
000000a0: 7d3a 803a 3b04 1f3a 163e d839 32fa 4439
000000b0: 553e ddba eb10 5aba c202 1c3b 35e8 12ba
000000c0: 2226 343b e3f9 3139 c205 953a 3eeb 723a
000000d0: 6703 bbba 5d4c 13b7 3093 f9b8 30f5 1bbb
000000e0: 8c70 92b7 f49e 3c3b 442e d0ba 26bd beb9
000000f0: 1208 5839 fd96 1d3b efa4 8f3a c9ac 9db9
00000100: 9c2a cdbb 2936 2ebc b79a 76bc 580d ce3a
00000110: 0e97 b53b 50e2 223c 058e 82bc f494 c2bc
00000120: 7cf5 613c efca b1bb c51a b53b 05a0 d23b
00000130: 3454 83bc 66e5 e1ba 489e c23c 2f34 55bc
00000140: a6a7 963c 8606 2f3c 5568 773c d4d1 113c
00000150: 1427 32bc 1b9b e93b c688 9a39 3267 aabc
00000160: 70f8 b43a fb94 163d b226 8abc 8893 62bc
00000170: 994e 8f3c 974a 373c bb39 5f3c 6a86 1cbc
00000180: 3b2a 063e b848 e43d a83d 1f3e 7706 23bd
00000190: 108b bdbd de1c e9bd d652 0c3e 64a7 5b3e
000001a0: 370c 8abd 6df7 bc3d ad0a 2bbd 4743 85bd
000001b0: f67c 1a3e ceb9 34bd efea 2dbe fa69 143e
000001c0: e411 81bd 2f3f 0dbe 70d8 d3bd 61c1 dabd
000001d0: 928a 393d 0344 eabd a146 23bc c2f5 f23d
000001e0: e2da 98bc 0a5c 63be 85a2 c73d 1025 403e
000001f0: 0f3d 17be 18d1 613d e242 90bd 9585 0a3e
00000200: 9f7a 7bbe 0a09 4abe 7aaa 9bbe d399 af3d
00000210: 9e3f 353e 9185 593e 4550 77be d6de c3be
00000220: 0350 253e 29b7 48be 1f5c 833d 0fcb 013e
00000230: 273e 96be 1b74 ff3d b6a1 933e 84c1 88be
00000240: 4957 543d a6f1 943e 53a9 223e 2846 583e
00000250: 30be 3dbd 016a 6f3e 0ca8 c73c c614 4bbe
00000260: 8678 193d 8cd2 b53e cab5 f6bd 957f c8be
00000270: 9786 903e 0405 11be fb99 9b3d 6a1e 8abe
00000280: db57 bebd f53e aabd b82d e4bd 7c75 e13c
00000290: ad19 873d 8dcf a53d 5add cfbd 632a 24be
000002a0: 6f15 543d 3040 84bd 7be9 033d 46d5 423d
000002b0: 7be1 ddbd 4a71 d23c 09f5 043e b04c d7bd
000002c0: 7d6b 693d 58a2 c63d 0006 a53d c258 993d
000002d0: 053c 22bd 4208 a33d ef42 df3b 192d c2bd
000002e0: 30c0 573c ca66 383e c3f7 a5bd 0711 05be
000002f0: fa03 e53d 8c1f e7bc 914f 7e3d 25f0 c1bd
00000300: 69eb 8139 fba5 4ab8 3db4 0fba 25fa 6ab9
00000310: abe5 95b9 2c82 223a 38b1 6cba ba20 44ba
00000320: 8ef9 c739 34f9 c139 95a3 3539 ef53 3338
00000330: 952a 4dba a756 ebb9 c065 913a 9f3c 48b9
00000340: 2f14 a83a 08ba 5bb6 bad6 fa39 4fa7 f139
00000350: c510 3aba 22fa b0b8 c356 85b8 f08f 93ba
00000360: 7401 19b7 30b3 ac3a 323e 42ba ff85 f8b8
00000370: 6c54 cdb7 c165 903a d138 db39 0374 ffb8
00000380: 59b9 60be fd45 35be cd61 89be 8a53 983d
00000390: 5d3a 203e 9ff2 413e 9a82 5ebe 7065 afbe
000003a0: a21a 093e 370b 2ebe de9f 733d 1502 e43d
000003b0: c5b7 84be 383a d43d 29a0 853e 274b 74be
000003c0: 0274 683d 1b4c 813e 7c1f 143e 3355 3e3e
000003d0: ade5 42bd a432 523e 1c24 ab3c f527 37be
000003e0: 714f 063d 7c3c a43e c4a6 eebd 9729 afbe
000003f0: 526b 7c3e 9721 f8bd 4b8e 9b3d 4136 73be

bert.encoder.layer.0.attention.self.key.bias f4 [32]
6.372997e-08 -6.9452512e-06 0.00038360042 -0.0003144558 -0.00072836655 -0.00010924609 -1.9910445e-05 -5.0192903e-06
4.991034e-08 -1.7497418e-05 3.9613987e-08 -2.225741e-09 4.212076e-08 2.4432784e-06 2.982164e-06 0.00059230987
-8.39828e-06 7.851671e-06 -4.99674e-08 0.00069691153 -3.0259298e-06 7.7255544e-07 -5.6540885e-05 0.0004885668
-2.5623911e-05 0.0012195626 1.0550214e-06 -1.9729848e-07 -9.206371e-06 -7.716223e-05 0.00012362882 -1.7364333e-07
00000000: ecdb 8833 410b e9b6 fa1d c939 8bdd a4b9
00000010: daef 3eba 0c1b e5b8 5b05 a7b7 606b a8b6
00000020: 005d 5633 6bc7 92b7 0a24 2a33 a6f3 18b1
00000030: 44e8 3433 34f7 2336 3021 4836 3e45 1b3a
00000040: 57e6 0cb7 acba 0337 bd9b 56b3 f1b0 363a
00000050: 1411 4bb6 9b61 4f35 5026 6db8 2a13 003a
00000060: eef2 d6b7 bbd9 9f3a 429a 8d35 fed8 53b4
00000070: 1075 1ab7 28d2 a1b8 5ca2 0139 b772 3ab4

bert.encoder.layer.0.attention.self.value.weight f4 [32, 32]
0.016373293 0.0246907 -0.02210253 0.043789864 0.024094142 -0.007952747 -0.033852905 -0.01656385
0.010464905 -0.020914044 0.049187943 0.014250834 -0.05084386 0.01972362 -0.007878674 -0.027199244
-0.036995932 -0.09035575 0.020600684 0.08538608 0.03835933 -0.053525634 -0.004346026 -0.014824517
0.007373299 -0.0054908586 0.010512206 -0.06933352 -0.059958704 -0.0476186 -0.036495943 0.010064808
0.015373288 0.0062441635 -0.01902138 0.037278086 0.020751404 0.005852638 -0.030508868 -0.01978339
0.008815646 -0.001228645 0.031121237 0.003919352 -0.051031906 0.014257036 -0.009082223 -0.02370277
-0.0136984065 -0.052959647 -0.00035643324 0.056092426 0.023199515 -0.0113097355 -0.0042592287 -0.009271943
0.003177334 -0.0026452492 0.011099953 -0.013946305 -0.009317654 -0.008880715 -0.016551975 0.026523173
0.008146222 -0.0054218816 0.024089932 -0.055704188 -0.06017966 0.008576684 0.015559322 0.0377325
-0.003451468 0.008534631 -0.07272975 -0.015202402 0.04958178 -0.008508513 -0.0016168167 0.06962355
-0.01537129 0.11925809 0.006533126 -0.092209294 -0.022713939 0.0062528774 -0.0019701857 -0.010937521
-0.0061894627 -0.027554821 -0.00440039 0.033425603 0.033102307 -0.0034993547 0.010256947 -0.062388353
-0.0032724668 -0.002341773 0.03595349 -0.0163021 -0.04844086 0.013040987 -0.0005073854 -0.01245758
-0.026634688 0.00032555277 -0.0145893125 0.026760317 0.055167563 -0.036045473 -0.02676456 0.01680001
0.033120073 -0.016492503 -0.011969586 -0.04903894 -0.0568268 0.03585566 0.013185923 -0.028933497
0.0007016159 0.0075733047 -0.0053579994 0.03360052 0.0105574615 0.020879548 -0.011483977 0.017172124
0.005303647 0.002170882 -0.041672494 0.032442108 0.04034473 -0.0035349845 -0.017897146 -0.003687533
0.019464256 -0.0016252969 0.027465384 -0.0065331296 -0.0518626 0.022987274 0.0073476536 -0.035689466
-0.018697802 -0.035479374 1.5446567e-05 0.058362655 0.03148769 -0.013443676 -0.009076676 0.004641678
0.0016438952 -0.0051745665 0.013884698 -0.020730179 -0.0067767017 -0.015545198 -0.008138737 0.010567859
0.016641535 0.009357993 -0.027040085 0.05003368 0.03135238 0.005541753 -0.037879754 -0.0299208
0.01125762 -0.0033847932 0.04619749 0.004309 -0.06552005 0.018710757 -0.00841159 -0.03322539
-0.014914032 -0.07517995 -0.0010596815 0.07652567 0.0301268 -0.015900368 -0.0054279026 -0.009367767
0.003849208 -0.00021215319 0.013019525 -0.022139587 -0.01431633 -0.010191391 -0.019711588 0.03539235
0.0046789246 0.014145174 -0.0003445145 0.047388233 0.015733648 0.01559607 -0.0142564 -0.013636705
-0.002259549 -0.006811681 0.037421796 -0.00557511 -0.05562857 0.014469213 -0.020503782 -0.026446713
0.007976983 -0.063938506 0.0038060679 0.04794767 0.041776266 -0.011621544 -0.002783639 0.008984503
0.0027818987 0.023040567 -0.0029048412 -0.004352684 -0.013519781 0.021848908 -0.012681188 0.025426328
-0.19781639 -0.21626821 -0.03849451 -0.24283437 0.19771339 -0.19142531 0.30644217 -0.005968159
0.005887124 -0.025091643 0.21390474 -0.1949047 -0.0045221145 -0.12433174 0.20469846 -0.20597379
0.15537976 0.08395356 -0.04245966 -0.1750045 -0.14504904 0.15049283 0.08469291 0.20240232
0.016738277 0.0076456065 -0.026954118 -0.0295001 0.022092747 0.21744895 0.21688718 -0.104779944
00000000: 4921 863c 2744 ca3c 5d10 b5bc 005d 333d
00000010: 1461 c53c 3d4c 02bc 58a9 0abd e9b0 87bc
00000020: fe74 2b3c ee53 abbc 4c79 493d 547c 693c
00000030: a741 50bd 6e93 a13c 8e15 01bc f3d0 debc
00000040: 0c89 17bd 6f0c b9bd c4c2 a83c e6de ae3d
00000050: ac1e 1d3d b23d 5bbd 1c69 8ebb 88e2 72bc
00000060: b79b f13b a9ec b3bb 633b 2c3c bcfe 8dbd
00000070: 4297 75bd b90b 43bd c57c 15bd dde6 243c
00000080: 3ee0 7b3c d79b cc3b bad2 9bbc e8b0 183d
00000090: d9fe a93c 7cc7 bf3b bced f9bc c710 a2bc
000000a0: 806f 103c 7c0a a1ba f7f1 fe3c e86d 803b
000000b0: d506 51bd 5896 693c 9bcd 14bc 502c c2bc
000000c0: 486f 60bc 37ec 58bd a9df bab9 2cc1 653d
000000d0: e90c be3c 784c 39bc 0091 8bbb 59e9 17bc
000000e0: d23a 503b eb5b 2dbb 94dc 353c 0b7f 64bc
000000f0: 13a9 18bc 6b80 11bc 0298 87bc 2047 d93c
00000100: bb77 053c 0aaa b1bb 4058 c53c 132a 64bd
00000110: f27e 76bd 3885 0c3c 87ec 7e3c 658d 1a3d
00000120: 0632 62bb d6d4 0b3c 56f3 94bd 7f13 79bc
00000130: 4416 4b3d 4a67 0bbc 5eeb d3ba cb96 8e3d
00000140: ddd7 7bbc 963d f43d d513 d63b 3ad8 bcbd
00000150: 9512 babc f0e4 cc3b 3b1e 01bb 4a33 33bc
00000160: fad0 cabb a6ba e1bc 2631 90bb 49e9 083d
00000170: 4996 073d 6e55 65bb c10c 283c ee8a 7fbd
00000180: e276 56bb 6e78 19bb f743 133d fb8b 85bc
00000190: ec69 46bd dda9 553c 0f02 05ba e11a 4cbc
000001a0: fd30 dabc f4ae aa39 0308 6fbc 7438 db3c
000001b0: 62f7 613d 6ba4 13bd 5a41 dbbc 2da0 893c
000001c0: eaa8 073d 491b 87bc 151c 44bc 0edd 48bd
000001d0: 38c3 68bd 62dd 123d c509 583c f105 edbc
000001e0: a5ec 373a 7c29 f83b 2892 afbb b3a0 093d
000001f0: 34f9 2c3c 960b ab3c 4a27 3cbc 8eac 8c3c
00000200: 37ca ad3b 5b45 0e3b c7b0 2abd 04e2 043d
00000210: 8440 253d 33ab 67bb 099d 92bc 8aaa 71bb
00000220: 8173 9f3c ea07 d5ba 16ff e03c dd13 d6bb
00000230: e16d 54bd cf4f bc3c 96c4 f03b 1e2f 12bd
00000240: 222c 99bc d252 11bd 4093 8137 ae0d 6f3d
00000250: 3cf9 003d dd42 5cbc 57b6 14bc 3819 983b
00000260: f877 d73a 698f a9bb a57c 633c 56d2 a9bc
00000270: 180f debb 49b1 7ebc 5658 05bc d024 2d3c
00000280: d453 883c 4452 193c 2b83 ddbc 1ef0 4c3d
00000290: 5a6b 003d 9897 b53b cd27 1bbd 771c f5bc
000002a0: e171 383c 68d3 5dbb 9439 3d3d 8332 8d3b
000002b0: 602f 86bd 4d47 993c c4d0 09bc 5917 08bd
000002c0: fc59 74bc f2f7 99bd 03e5 8aba 7eb9 9c3d
000002d0: 7bcc f63c 7d41 82bc 8cdc b1bb 437b 19bc
000002e0: fe42 7c3b 7075 5eb9 d94f 553c 145e b5bc
000002f0: 0a8f 6abc cbf9 26bc 327a a1bc 92f7 103d
00000300: aa51 993b 29c1 673c f49f b4b9 2a1a 423d
00000310: dae3 803c a986 7f3c ad93 69bc 7d6c 5fbc
00000320: f114 14bb 8634 dfbb 9947 193d 6aaf b6bb
00000330: c9da 63bd 4710 6d3c 8cf7 a7bc c7a6 d8bc
00000340: e4b1 023c 31f2 82bd 396f 793b c764 443d
00000350: 971d 2b3d 4a68 3ebc b66d 36bb bd33 133c
00000360: 8450 363b 92bf bc3c 265f 3ebb f6a0 8ebb
00000370: 1282 5dbc 7bfc b23c c2c4 4fbc e04a d03c
00000380: 6190 4abe 6a75 5dbe 6bac 1dbd 93a9 78be
00000390: 6175 4a3e ff04 44be fde5 9c3e 8c90 c3bb
000003a0: c7e8 c03b fd8c cdbc d809 5b3e 1995 47be
000003b0: 3f2e 94bb a4a1 febd 799c 513e cbea 52be
000003c0: df1b 1f3e d8ef ab3d 2eea 2dbd 6134 33be
000003d0: bc87 14be cb1a 1a3e 7a73 ad3d 8e42 4f3e
000003e0: b61e 893c ff87 fa3b e2ce dcbc 32aa f1bc
000003f0: d9fb b43c f0aa 5e3e ac17 5e3e de96 d6bd

bert.encoder.layer.0.attention.self.value.bias f4 [32]
0.025143154 -0.0040128143 0.019464074 0.0027004695 -0.0095866965 -0.0053460496 -0.0056753517 -0.057976063
-0.017466467 -0.00052660337 -0.069499046 -0.002339539 -0.023583094 0.008955219 -0.0038662374 -7.7431294e-05
0.0125521105 -0.022945868 -0.0071393857 0.09097274 -0.015860448 0.025246935 0.017766997 -0.0076695946
0.011851152 0.0038455843 -0.008941752 -0.038272414 -0.035248037 -0.02002324 0.04149378 0.0276482
00000000: 04f9 cd3c ed7d 83bb 1f73 9f3c 5cfa 303b
00000010: 8511 1dbc ea2d afbb 4df8 b9bb 4f78 6dbd
00000020: d615 8fbc c10b 0aba 8455 8ebd f352 19bb
00000030: 5531 c1bc e9b8 123c b360 7dbb 9c62 a2b8
00000040: 5ea7 4d3c f9f8 bbbc 82f1 e9bb ea4f ba3d
00000050: c5ed 81bc a9d2 ce3c 188c 913c 3951 fbbb
00000060: 562b 423c 3306 7c3b 6d80 12bc 89c3 1cbd
00000070: 3f60 10bd c707 a4bc 62f5 293d 7a7e e23c
