Graph-Bert/result/PreTrained_GraphBert/cora/node_classification_complete_model/pytorch_model.bin (torch_old, 512753 bytes, 47 tensors)

bert.embeddings.raw_feature_embeddings.weight f4 [32, 1433]
0.0048826523 0.00657439 0.044565823 -0.0060193525 0.059467718 -0.006091574 -0.0055557927 -0.0017315301
-0.012730979 0.00872575 -0.01349393 0.0065924586 0.006941198 -0.008676459 0.019132556 -0.0045361714
0.004585253 0.00088647346 -0.0065366235 -0.016699746 -4.25443e-06 0.0023397852 -9.303603e-06 -0.0028096577
1.1941393e-06 -0.0017375479 0.009497161 0.007349244 -0.00045638802 0.0048514204 -0.0018879122 0.0001087999
0.0011370553 0.0015952308 0.0028300108 -0.013083057 -0.00277408 2.871175e-06 0.002650142 -0.00043208065
-0.00013380048 0.013291091 0.005064313 0.004658465 0.002604225 -0.0009900404 0.0014234416 0.0014016225
0.0049436702 0.002015074 -0.0035856813 -0.0007650293 0.0023243998 5.2577293e-06 -0.0049847057 0.0025594265
0.0008207147 0.0012800827 -0.001433748 -0.0028116521 6.0075695e-06 -0.0015221583 -0.0010947296 0.00403181
0.009529957 -0.0148857 -0.005664302 0.009249135 0.0008992191 -0.01263235 0.021442708 0.002270491
-0.0041450844 -0.0060682665 0.0037612887 -0.003917229 -2.683615e-06 0.013042361 -0.010116681 -0.0014980799
0.0070082406 -0.019585999 0.0027628634 -0.0013173395 0.0018542367 -0.03199856 -0.003991499 -0.014544304
-0.009776542 6.944916e-05 -0.0013129768 1.8330111e-06 -0.0065735304 -0.00079567864 -0.004851195 0.005903014
-0.0022976634 0.008175379 -0.0050019715 0.013715427 -0.0021419595 7.2523094e-06 0.0048140385 -0.013641057
0.010172705 0.0032259175 0.005053595 0.0015485324 -0.004857383 -0.00024345674 0.0027186505 -0.0009499763
0.006357263 2.2914592e-06 -0.0005682291 0.0017237705 0.001167481 -0.0038615232 0.0075576124 0.000348871
0.0006347308 0.00094087305 -0.0007725464 0.0013539069 0.008117821 -0.0064482857 0.0070914286 0.0041155755
-0.0030668685 0.0041596806 -0.006763663 0.010449399 -0.023051787 0.002922317 0.00019296347 -0.014261564
-0.012464995 -0.0057994267 0.0031690306 0.018588925 0.006952174 -0.0019765797 0.002648775 0.011316255
0.007546807 -0.0011314491 -0.009952043 -0.0047923783 -0.0005949759 6.5273853e-06 -0.006503491 0.020031188
-0.004948344 -0.0036524953 -0.0025768287 0.0031208328 0.0050209616 0.0028199574 0.0030227394 0.0030643279
-0.0026708776 -0.00052981084 -0.0076175313 -4.690981e-06 0.0001821622 -3.6856876e-05 5.2250866e-06 -0.0056371377
-0.0063124923 -0.0041997554 0.005537363 -0.01546414 0.005282087 -0.0013807857 -0.0057519753 -0.00739349
-0.016114188 -0.005455314 0.0012055726 0.01889349 4.1732164e-08 0.0008527636 -0.017555036 -0.0032446242
0.00086124963 -0.0023383833 0.011923164 -0.0070045814 0.00096060836 0.0017846316 -0.0029634607 0.0054204725
0.017473932 -0.00026147824 0.0072451457 0.007940306 0.013795283 -4.4672033e-06 -0.004897816 -0.0049010543
-0.0012658037 -0.0017150975 0.0016383493 0.012006374 -0.011074457 0.012505518 -0.0021275952 -0.006201766
-0.0023716104 -0.0006437378 -0.0026453012 -0.0069474187 -0.017350474 -0.0056737633 -0.0047401246 -0.0065306565
-0.007458645 -0.008783538 -2.295228e-06 -0.0058865477 -0.005941417 0.0013717781 -0.008612132 -0.007447526
-0.004858828 0.013300511 0.003858294 -8.748998e-06 -0.015632248 0.006230157 -1.4002617e-06 -0.010027988
-4.2236505e-05 -0.008775334 0.003428693 -0.008461095 -0.00035360255 -0.015199049 -0.0029765184 -0.00029582478
0.0030201976 -0.0034907751 -1.251592e-07 -0.0024109608 0.0056939013 -0.0041956888 0.0027378662 0.010411728
0.0033056205 0.0027981158 0.014999081 -0.010195252 -0.008795925 0.0019678236 -0.00089309807 -0.001696482
00000000: a8fe 9f3b fb6d d73b a78a 363d fd3d c5bb
00000010: 6c94 733d d49b c7bb 5e0d b6bb 82f4 e2ba
00000020: 9995 50bc 73f6 0e3c a515 5dbc 8d05 d83b
00000030: fd72 e33b b527 0ebc e1bb 9c3c 2aa4 94bb
00000040: e43f 963b 3a62 683a 2c31 d6bb e8cd 88bc
00000050: 47c1 8eb6 1557 193b ac16 1cb7 3c22 38bb
00000060: 5046 a035 6fbe e3ba fb99 1b3c edd1 f03b
00000070: 5d47 efb9 aaf8 9e3b d273 f7ba 802b e438
00000080: 3f09 953a 1017 d13a b477 393b 515a 56bc
00000090: 57cd 35bb 69ae 4036 01ae 2d3b e288 e2b9
000000a0: cb4c 0cb9 e0c2 593c 89f2 a53b 09a6 983b
000000b0: a5ab 2a3b 3ec4 81ba c692 ba3a a6b6 b73a
000000c0: 83fe a13b 550f 043b c0fd 6abb 3f8c 48ba
000000d0: f554 183b 8d6b b036 be56 a3bb 0dbc 273b
000000e0: 3b25 573a 73c8 a73a 9aec bbba b243 38bb
000000f0: a194 c936 2883 c7ba 087d 8fba 461d 843b
00000100: 8923 1c3c 27e3 73bc 9c9b b9bb af89 173c
00000110: 93b9 6b3a ebf7 4ebc 9ea8 af3c 85cc 143b
00000120: 7dd3 87bb 4fd8 c6bb f47f 763b 195c 80bb
00000130: 2818 34b6 a0af 553c 70c0 25bc 385b c4ba
00000140: 62a5 e53b d172 a0bc 2811 353b 94aa acba
00000150: dc09 f33a ec10 03bd 1fcb 82bb 3c4b 6ebc
00000160: ca2d 20bc 3ca5 9138 3118 acba c805 f635
00000170: c566 d7bb 1795 50ba c6f6 9ebb 126e c13b
00000180: 6594 16bb 06f2 053c 94e7 a3bb acb6 603c
00000190: 1e60 0cbb dd58 f336 15bf 9d3b bd7e 5fbc
000001a0: 6bab 263c ea69 533b a198 a53b 20f8 ca3a
000001b0: af2a 9fbb 6c48 7fb9 632b 323b d507 79ba
000001c0: 9650 d03b f8c6 1936 36f5 14ba 24f0 e13a
000001d0: 2906 993a 9c11 7dbb d9a5 f73b ace8 b639
000001e0: 1064 263a eca4 763a b684 4aba 9475 b13a
000001f0: 9c00 053c 244c d3bb 375f e83b f3db 863b
00000200: 84fd 48bb ee4d 883b b8a1 ddbb f533 2b3c
00000210: 1ad7 bcbc 5884 3f3b 3d56 4a39 56a9 69bc
00000220: fa39 4cbc 1e09 bebb 83af 4f3b cd47 983c
00000230: 10cf e33b 8189 01bb 1297 2d3b d067 393c
00000240: 354b f73b 224d 94ba e50d 23bc 6209 9dbb
00000250: 28f8 1bba d005 db36 3d1b d5bb 7218 a43c
00000260: b825 a2bb b45e 6fbb 03e0 28bb e386 4c3b
00000270: e186 a43b 09cf 383b 2719 463b e4d2 483b
00000280: e409 2fbb 01e3 0aba 7c9c f9bb 3867 9db6
00000290: cb02 3f39 c596 1ab8 2753 af36 bdb7 b8bb
000002a0: 06d9 cebb 1a9e 89bb c472 b53b 4e5d 7dbc
000002b0: 5b15 ad3b 7bfb b4ba 117b bcbb 1745 f2bb
000002c0: e701 84bc 7ec2 b2bb 4e04 9e3a 85c6 9a3c
000002d0: 003d 3333 ff8b 5f3a 94cf 8fbc c3a3 54bb
000002e0: 7cc5 613a 903f 19bb 6059 433c b086 e5bb
000002f0: 56d1 7b3a 4dea e93a 9f36 42bb 389e b13b
00000300: 7e25 8f3c 0417 89b9 b068 ed3b 0f18 023c
00000310: 9c05 623c fce4 95b6 dc7d a0bb 0699 a0bb
00000320: 53e9 a5ba 1fcd e0ba e1bd d63a 62b6 443c
00000330: a471 35bc f2e3 4c3c 206f 0bbb 2f38 cbbb
00000340: 056d 1bbb 83c0 28ba ca5c 2dbb 2ca7 e3bb
00000350: 9522 8ebc faea b9bb 0c53 9bbb 1eff d5bb
00000360: a667 f4bb d4e8 0fbc b707 1ab6 f1e3 c0bb
00000370: 38b0 c2bb 3ccd b33a e619 0dbc 600a f4bb
00000380: ce36 9fbb 63ea 593c 6fdb 7c3b a9c8 12b7
00000390: 330f 80bc 5826 cc3b a0f0 bbb5 6e4c 24bc
000003a0: 1a27 31b8 6bc6 0fbc ecb3 603b 68a0 0abc
000003b0: bb63 b9b9 6f05 79bc b111 43bb ee18 9bb9
000003c0: 82ee 453b 7dc5 64bb 8063 06b4 3601 1ebb
000003d0: e893 ba3b fd7b 89bb c66d 333b f495 2a3c
000003e0: 1ca3 583b 9860 373b b5be 753c fc09 27bc
000003f0: c91c 10bc 9af6 003b cc1e 6aba 7d5c deba

bert.embeddings.raw_feature_embeddings.bias f4 [32]
0.026557937 0.002473415 0.009253638 0.0048137307 -0.0055513796 -0.002032138 0.0172306 0.0009697477
0.0016123117 0.0024752084 0.009135101 -0.0083538825 -0.00533373 -0.00839804 -0.0047236006 0.0019987933
0.0017767581 -0.010692119 -0.000815566 -0.02088443 -0.0018877287 -0.016510509 0.0062195347 0.00480971
0.014917924 -0.00462532 0.003258399 -0.0043935487 0.0012207704 0.008606191 0.014557643 -0.016871698
00000000: 0890 d93c 0519 223b 929c 173c 80bc 9d3b
00000010: 59e8 b5bb 9e2d 05bb 3027 8d3c ab36 7e3a
00000020: 3454 d33a 1b37 223b 64ab 153c b9de 08bc
00000030: 92c6 aebb ef97 09bc 6fc8 9abb 30fe 023b
00000040: 1ce2 e83a ff2d 2fbc b5cb 55ba d315 abbc
00000050: aa6d f7ba 0c41 87bc 3dcd cb3b c69a 9d3b
00000060: 4f6a 743c ff8f 97bb dd8a 553b c2f7 8fbb
00000070: 4202 a03a fb00 0d3c 2e83 6e3c 8436 8abc

bert.embeddings.wl_role_embeddings.weight f4 [100, 32]
1.7136892e-06 3.2320704e-06 -3.5054518e-07 2.2419733e-06 6.8271734e-06 6.3067023e-07 -8.491306e-06 3.4278946e-06
4.2397223e-06 -5.0670124e-06 6.582468e-07 1.2759212e-06 -1.5124749e-05 2.651761e-06 5.3415097e-06 -8.265272e-07
4.1745675e-06 1.825498e-06 2.00663e-06 1.8630183e-06 3.6452875e-06 1.1423817e-06 -4.6670198e-07 5.1958978e-06
-9.593621e-06 4.6406003e-06 8.291001e-06 2.297323e-06 -4.2991496e-07 -5.1836223e-06 -3.3397753e-06 -1.984582e-06
-0.0045001237 -0.0023395647 0.010104844 0.012671924 -0.010359453 0.011425714 -0.006748598 0.011284356
-0.0045737624 -0.018752566 -0.0061548213 0.011348429 0.0112884175 -0.0004970277 0.0052122027 -0.022568135
-0.009343511 0.005649551 0.026394278 -0.0117292125 0.0067708446 -0.01965113 0.019163603 -0.006793081
-0.011535203 0.013804341 0.007196211 0.002510379 0.006642708 -0.0028421842 -0.012202181 0.0009111739
-0.006133308 -0.005671015 0.006473686 -0.002187791 0.003246287 -0.0033111444 -0.0064525637 -0.0037453945
-0.0034802796 0.0023406113 -0.0080006085 0.009030631 0.0059970836 0.007124897 0.0014500562 0.008555138
-0.0014684416 -0.021734841 0.005780768 0.0015801194 0.0006178314 0.00054903544 -0.0053798044 0.0001007101
-0.0050951485 0.0013835533 0.0026270195 0.0063329116 5.5977645e-05 0.0039042132 0.0021239747 0.010742329
0.00014033043 0.0030237976 -0.004867966 0.0035926923 -0.0024252378 0.0015976669 -0.009604944 -0.0019271447
0.0030264042 -0.0014019522 -0.0038131145 -0.0012616612 -0.006316446 0.007039501 0.003953225 0.009962583
0.00086110923 0.0025087635 -0.012160094 -0.007638601 -0.001575019 0.004779132 -0.00306259 -0.0015510205
0.0028696524 0.0018519316 0.000536098 0.0037295455 0.0027334373 -0.001847821 -0.00075310265 0.0072526974
0.00398251 -0.0022327318 -0.005222483 -0.0075363414 -0.0043831845 -0.0012418956 -0.00036465676 -0.0014487869
-0.0033539752 -0.0032838215 0.00116539 0.01207731 0.002673119 -0.0033656687 0.00038020517 -0.0020094088
-0.0037474472 -0.011550957 0.013225345 0.0059032487 -0.008074424 -0.009611252 0.001960312 0.0043749027
0.012654537 -0.0043115024 0.0039065997 -0.0075355396 -0.0091079855 0.011618636 0.0025607173 -0.005451005
-0.0016557067 0.0016562341 -0.0005897043 -0.0008814501 -0.001426813 -0.0016771015 0.0038187613 0.00040454228
-0.0012527094 -0.00075130654 0.0056416886 0.00035569316 0.00087003957 4.265356e-05 0.00029297092 -0.002216934
0.0007768116 0.00096080353 0.0041152667 -0.0012100497 -0.00036506646 -0.0020033172 0.0074563385 -0.00043284104
-0.0015081868 -0.0014053956 -0.0012097822 -0.00016572865 0.00033425726 -0.0003209694 -0.0011643376 -0.005208443
0.0013279285 0.00588424 -0.0020930807 -0.0017416985 0.011558509 -0.002381605 0.0028020104 -0.0022979395
0.00093524967 0.0024227106 0.0027219427 -0.0017796233 -0.0030005604 -0.00023261903 0.0041177985 0.005068707
0.0058402047 -0.008069775 0.00016425483 0.00096354214 -0.0022650023 0.00045820425 -0.0037546016 -0.0073020863
-0.0013846231 -0.0063684825 -0.0008537397 -0.0017317955 -0.0030736749 0.004159167 0.0012617523 -0.00310253
-0.0069131698 0.00033251243 0.004698421 0.0024632448 -0.0063665654 0.012424935 -0.0055366145 0.009530025
-0.0020631044 -0.013903499 -0.017965235 0.006509007 0.0035469655 -0.0052007255 0.0049621323 -0.01302329
0.0006605595 0.02270926 -0.0060461303 -0.00026347043 0.0027208545 0.002926809 -0.0018526393 -0.0010519885
-0.010432198 0.010468942 0.0023847953 0.004393657 0.007423817 0.005144927 0.0024458205 0.017518159
00000000: ea01 e635 8ce6 5836 9032 bcb4 cf74 1636
00000010: f914 e536 544b 2935 e275 0eb7 c80a 6636
00000020: f042 8e36 4e05 aab6 60b2 3035 5240 ab35
00000030: 4dc0 7db7 e8f4 3136 383b b336 84de 5db5
00000040: 4313 8c36 a203 f535 a4a9 0636 d20c fa35
00000050: 90a1 7436 f053 9935 088f fab4 6c58 ae36
00000060: 4af4 20b7 74b6 9b36 9419 0b37 b52b 1a36
00000070: 10cf e6b4 faee adb6 e720 60b6 dc2e 05b6
00000080: c675 93bb 6253 19bb ca8e 253c e79d 4f3c
00000090: b2ba 29bc eb32 3b3c 5823 ddbb 05e2 383c
000000a0: 80df 95bb fb9e 99bc 62ae c9bb c3ee 393c
000000b0: 0ef3 383c f74a 02ba 20cb aa3b cfe0 b8bc
000000c0: 8715 19bc de1f b93b d038 d83c e22b 40bc
000000d0: f6dd dd3b 68fb a0bc fdfc 9c3c 7e98 debb
000000e0: 26fe 3cbc 9a2b 623c 31ce eb3b 2c85 243b
000000f0: 13ab d93b f043 3abb a8eb 47bc d8db 6e3a
00000100: ebf9 c8bb ecd3 b9bb 3721 d43b 0b61 0fbb
00000110: a8bf 543b c9ff 58bb 0770 d3bb 4b75 75bb
00000120: 6715 64bb f164 193b fc14 03bc 36f5 133c
00000130: 2f83 c43b f877 e93b d00f be3a d92a 0c3c
00000140: b978 c0ba 440d b2bc 996c bd3b 021c cf3a
00000150: f7f5 213a 25ed 0f3a 1249 b0bb 5334 d338
00000160: 34f5 a6bb 5858 b53a 132a 2c3b 5084 cf3b
00000170: 8ac9 6a38 d4dd 7f3b 6232 0b3b 9800 303c
00000180: aa25 1339 e82a 463b 7583 9fbb 6073 6b3b
00000190: bdf0 1ebb ce68 d13a 0e5e 1dbc 3f98 fcba
000001a0: a356 463b b6c1 b7ba 72e5 79bb 535e a5ba
000001b0: 30fa cebb 9dab e63b 0e8a 813b 1a3a 233c
000001c0: 10bc 613a 116a 243b 223b 47bc 3b4d fabb
000001d0: de70 ceba 449a 9c3b bcb5 48bb 9d4b cbba
000001e0: c710 3c3b 83bc f23a ee88 0c3a 646b 743b
000001f0: 7823 333b 9632 f2ba dd6b 45ba 09a8 ed3b
00000200: b77f 823b 0653 12bb 5d21 abbb 6af3 f6bb
00000210: d1a0 8fbb 1ac7 a2ba 672f bfb9 39e5 bdba
00000220: 5ece 5bbb 6235 57bb 00c0 983a e9df 453c
00000230: 7f2f 2f3b 8d92 5cbb 4656 c739 49b0 03bb
00000240: bb97 75bb 3a40 3dbc 1eaf 583c 0a70 c13b
00000250: 974a 04bc 8378 1dbc 9478 003b 585b 8f3b
00000260: fa54 4f3c 8147 8dbb ef02 803b b0ec f6bb
00000270: a939 15bc 175c 3e3c b5d1 273b 589e b2bb
00000280: 4c04 d9ba ff15 d93a 6396 1aba 1d11 67ba
00000290: e603 bbba 30d2 dbba 2f44 7a3b bf18 d439
000002a0: f431 a4ba 54f3 44ba eadd b83b 547c ba39
000002b0: 5e13 643a e9e6 3238 e499 9939 fb49 11bb
000002c0: f2a2 4b3a 6fde 7b3a 5cd9 863b 889a 9eba
000002d0: 6466 bfb9 164a 03bb 4d54 f43b f1ee e2b9
000002e0: 5aae c5ba 4035 b8ba 8e91 9eba 72c7 2db9
000002f0: 403f af39 c947 a8b9 b09c 98ba 96ab aabb
00000300: e30d ae3a 95d0 c03b 112c 09bb b449 e4ba
00000310: e75f 3d3c b414 1cbb efa1 373b 0799 16bb
00000320: 8b2b 753a 57c6 1e3b 9f62 323b 4042 e9ba
00000330: 0da5 44bb 32eb 73b9 99ee 863b 6517 a63b
00000340: 305f bf3b 1737 04bc d23b 2c39 3896 7c3a
00000350: 6f70 14bb 223b f039 c30f 76bb 5746 efbb
00000360: 3e7c b5ba b4ae d0bb 80cd 5fba 6afd e2ba
00000370: b56f 49bb 9f49 883b 6261 a53a d153 4bbb
00000380: df87 e2bb 1055 ae39 36f5 993b 646e 213b
00000390: 9f9e d0bb f491 4b3c 7d6c b5bb d223 1c3c
000003a0: 2635 07bb 80cb 63bc d42b 93bc 8249 d53b
000003b0: 3574 683b d96a aabb 6299 a23b a35f 55bc
000003c0: 6629 2d3a c508 ba3c 9e1e c6bb 6722 8ab9
000003d0: 5d50 323b b5cf 3f3b 42d4 f2ba e0e2 89ba
000003e0: cfeb 2abc ed85 2b3c 3a4a 1c3b abf8 8f3b
000003f0: 7e43 f33b c796 a83b 0f4a 203b 3e82 8f3c

bert.embeddings.inti_pos_embeddings.weight f4 [100, 32]
-0.00150397 0.0010763999 -0.011238903 -0.0016882656 0.006596612 -0.0021888404 -3.2928656e-05 -0.004324471
-0.0076314243 0.0074308524 -0.004936918 0.0068370565 -0.00037938732 0.010329261 -0.0030537986 0.009834527
0.0044819484 -0.0033716038 0.0025125232 -0.0013993514 -0.0057987534 0.011835826 0.001731976 -0.002366835
-0.0032744007 -0.004276447 0.0038685037 0.0036442948 0.004271744 0.0004761545 0.0039115287 0.014047639
-0.020413289 0.0008752654 -0.006080676 -0.01187127 -0.0041754385 -0.0015028188 0.0070311944 0.010078579
-0.012145069 0.0017601454 -0.0102274055 0.019534241 0.01418588 -0.0069960738 -0.005810249 -0.0072138333
-0.0043001142 -0.0037058473 0.0024055885 0.02305239 -0.007675436 -7.367827e-05 -0.007271495 0.0042043203
-0.012588754 -0.005361236 -0.008637721 -0.0031089133 -0.002978094 0.011500472 -0.013605541 0.00924657
-0.015058491 -0.0009569293 0.008082192 -0.008709927 -0.010394878 0.0020242156 0.0070262738 0.011973592
0.006037642 0.00574775 0.001682119 0.026394602 0.005845395 0.0008307138 -0.0036540374 -0.006280723
0.00015915389 -0.020913444 0.015829448 -0.00596293 -0.0057236906 -0.0163226 0.005322356 0.002024777
-0.0022177265 0.0037409435 -0.0042709745 0.0041301083 -0.006673589 0.010148981 0.017102484 -0.0045304717
-0.000972125 0.0032414598 0.009337292 0.011684015 -0.011889724 0.005663766 0.0074392525 0.0037990247
-0.01029352 -0.007854141 -0.0035491812 0.006377156 0.014898457 -0.002243531 -0.007150209 0.0004135936
-0.00054655503 -0.015295391 0.03094991 -0.000983688 0.0032841556 -0.029446794 0.005241764 0.009381743
0.004063251 0.005147333 0.0001037218 4.289375e-05 0.0030495876 0.016638516 -0.0004384759 0.004382651
0.016124418 0.0052799876 0.0051091905 0.006986695 -0.0026737058 -0.0072485325 0.0009652388 -0.012730226
-0.0041519087 0.0077513154 0.0025869282 -0.02656744 -0.0070169386 -0.00056220684 -0.008784838 0.004960494
0.0065293903 -0.0018703172 -0.0020348239 0.0070933616 -0.0071796966 -0.016713053 -0.016115608 0.009060217
0.011227645 -0.007319219 -0.006420077 -0.0016911937 0.004013904 0.009620223 -0.006641118 -0.0009043855
-0.0060396157 0.0045804437 -0.0039528464 0.0039355024 -0.0024811334 0.0035148705 0.005770545 0.0061710165
0.00435838 0.00279161 0.0063011143 0.00816398 0.0003700325 0.0033161873 0.0033711577 -0.008434017
0.0031634085 0.007124729 0.0025153297 -0.0017492903 0.0036102205 0.005386779 0.0049774325 0.008317508
-0.011203614 0.0029110028 0.00057651545 0.013870072 0.0029415318 0.00395606 -0.001191173 0.008284078
0.007491112 0.004577418 -0.0023298173 0.0010107565 0.0013342139 -0.0014417506 0.008219749 -0.0009774984
-0.00049803854 0.0075614825 0.0059488635 -0.013262014 -0.0034332876 0.0013297406 -0.003852951 -0.0051701018
0.006004706 -0.002338878 -0.01793312 0.0024527842 0.0026475596 -0.004417837 0.0022355933 0.00465575
0.008852506 3.0447845e-05 -0.0022083311 -0.0016314124 0.0007303561 0.012229377 0.0049479757 -0.0009204958
0.012758618 0.002843949 -0.0053630914 -0.0063692704 0.0020701746 -0.0045109186 0.0048600393 -0.0069745365
0.0029676524 0.01294289 0.012335087 -0.0053854017 -0.005092295 -0.008712405 -0.008888607 -0.014839268
0.009541356 0.0026869986 -0.008101166 0.0054055927 0.0018882382 0.0023102516 0.00806251 0.007095712
0.017505841 -0.0017868172 0.00080787204 -0.0039958847 -0.0022739081 0.01941138 0.006835796 -0.009675495
00000000: dc20 c5ba fd15 8d3a 6023 38bc cb48 ddba
00000010: 6428 d83b a672 0fbb e01c 0ab8 4bb4 8dbb
00000020: 0711 fabb 827e f33b dfc5 a1bb 6309 e03b
00000030: 81e8 c6b9 103c 293c 3d22 48bb ff20 213c
00000040: 4fdd 923b 20f6 5cbb 25a9 243b 716a b7ba
00000050: 7803 bebb 0deb 413c 7903 e33a e71c 1bbb
00000060: 5497 56bb 7021 8cbb b986 7d3b 1fd5 6e3b
00000070: fcf9 8b3b 60a4 f939 482c 803b 1228 663c
00000080: c539 a7bc 1172 653a 6840 c7bb b77f 42bc
00000090: 1ed2 88bb 3bfa c4ba ef65 e63b a020 253c
000000a0: 1dfc 46bc aeb4 e63a d990 27bc 4606 a03c
000000b0: e56b 683c 523f e5bb e763 bebb 0562 ecbb
000000c0: f9e7 8cbb cddd 72bb 14a7 1d3b 5ed8 bc3c
000000d0: 3982 fbbb b883 9ab8 b945 eebb 65c4 893b
000000e0: 1041 4ebc 4fad afbb 3a85 0dbc e9be 4bbb
000000f0: 202c 43bb 7a6c 3c3c c6e9 5ebc ed7e 173c
00000100: e4b7 76bc 70da 7aba 2c6b 043c 15b4 0ebc
00000110: 474f 2abc b4a8 043b a83c e63b e32c 443c
00000120: 69d7 c53b 9f57 bc3b 8c7a dc3a 7e39 d83c
00000130: ba8a bf3b 42c4 593a 9378 6fbb 86ce cdbb
00000140: 8ce2 2639 ac52 abbc c2ac 813c af64 c3bb
00000150: cc8d bbbb f9b6 85bc 2867 ae3b 1fb2 043b
00000160: 4757 11bb 9e2a 753b 88f3 8bbb dc55 873b
00000170: 1fae dabb e947 263c 821a 8c3c 5a74 94bb
00000180: 34d6 7eba ac6e 543b 71fb 183c 506e 3f3c
00000190: 1ecd 42bc 1d97 b93b f9c4 f33b 0ff9 783b
000001a0: 27a6 28bc a8ae 00bc 6199 68bb 76f7 d03b
000001b0: a818 743c 3408 13bb 4d4c eabb 98d7 d839
000001c0: b046 0fba 8599 7abc aa8a fd3c 18ef 80ba
000001d0: fd3a 573b 673a f1bc 1ac3 ab3b e2b5 193c
000001e0: 0525 853b f5aa a83b 3885 d938 d0e8 3338
000001f0: 97db 473b 7f4d 883c 3de3 e5b9 579c 8f3b
00000200: 5b17 843c bf03 ad3b ff6a a73b a5f0 e43b
00000210: 5739 2fbb 1985 edbb 1408 7d3a 7092 50bc
00000220: bc0c 88bb bffe fd3b 7489 293b f6a3 d9bc
00000230: 59ee e5bb 1061 13ba 48ee 0fbc a48b a23b
00000240: 7ff4 d53b 6e25 f5ba ae5a 05bb 6e6f e83b
00000250: a943 ebbb d0e9 88bc e104 84bc 4e71 143c
00000260: 28f4 373c 0fd6 efbb 825f d2bb 0bab ddba
00000270: 1187 833b 249e 1d3c bc9d d9bb 4914 6dba
00000280: f8e7 c5bb 8c17 963b e186 81bb 63f5 803b
00000290: 839a 22bb be59 663b d716 bd3b 3d36 ca3b
000002a0: bed0 8e3b 72f3 363b 9479 ce3b 37c2 053c
000002b0: ec00 c239 6454 593b a4ee 5c3b d52e 0abc
000002c0: 3051 4f3b 8f76 e93b 3bd8 243b 7148 e5ba
000002d0: 7399 6c3b 9483 b03b bb19 a33b 2846 083c
000002e0: 5d8f 37bc 86c6 3e3b 4c21 173a 4c3f 633c
000002f0: b7c6 403b d6a1 813b 2221 9cba f1b9 073c
00000300: 0178 f53b 2afe 953b d9af 18bb 5c7b 843a
00000310: cae0 ae3a 1ff9 bcba 20ac 063c 671f 80ba
00000320: cd8e 02ba 50c6 f73b afee c23b eb48 59bc
00000330: 0201 61bb b14a ae3a cb81 7cbb f569 a9bb
00000340: 20c3 c43b dd47 19bb 7ae8 92bc e4be 203b
00000350: ae82 2d3b 81c3 90bb 0883 123b 438f 983b
00000360: 1a0a 113c 406a ff37 a6b9 10bb 1ed5 d5ba
00000370: 5e75 3f3a ba5d 483c a122 a23b 6d4d 71ba
00000380: 8609 513c 8c61 3a3b dfbc afbb 50b5 d0bb
00000390: c4ab 073b 54d0 93bb f740 9f3b a78a e4bb
000003a0: f27c 423b 6a0e 543c 1b19 4a3c 0678 b0bb
000003b0: 44dd a6bb 7abe 0ebc 85a1 11bc 6720 73bc
000003c0: 5953 1c3c 5b18 303b c1ba 04bc 6621 b13b
000003d0: c37e f73a 9767 173b 9e18 043c 2583 e83b
000003e0: 6968 8f3c a333 eaba 60c7 533a e9ef 82bb
000003f0: d905 15bb 9d04 9f3c d0fe df3b f885 1ebc

bert.embeddings.hop_dis_embeddings.weight f4 [100, 32]
0.004356007 0.004653961 -0.010358291 -0.00047788626 -0.0010809351 -0.0034070546 -8.476677e-05 -0.0051935553
0.0022469799 0.0009106132 0.010107917 -0.016362455 -0.006487316 0.00897766 0.0016291661 -0.0010894223
0.003037327 0.012783709 -0.007985369 -0.0008526337 -0.0030736816 0.013648741 -0.016689038 -0.0022714906
-0.002009784 -0.0011634267 -0.009668449 0.0041786414 -5.2273914e-05 -0.0020073736 0.0040325765 -0.0052402155
0.011664771 0.0040474823 0.010208946 0.002934674 0.007119325 0.0013135022 -0.016478773 -0.010737113
0.016953874 0.00025427903 0.006485025 -0.030637601 -0.019476574 0.012472237 0.00248151 0.025533084
0.0070524863 -0.016872486 -0.0038221222 -0.029638475 0.008904107 -0.0070701605 0.0035852003 -0.011169608
0.010242998 0.0102355955 0.010010837 0.001331161 -0.001138576 -0.004550489 0.021042952 -0.0071826004
-0.010865986 0.00041199377 0.024503613 -0.0009802125 -0.00065735437 0.009485788 -0.016886428 0.007154386
-0.0008490199 -0.006533048 -0.004750845 0.016257385 0.011645807 -0.0037093018 0.00861595 -0.014762209
0.0005675728 -0.026732318 0.02832504 0.00020888471 0.0050037755 -0.0078538805 0.007206377 -0.0116086565
-0.008481709 0.0059686624 0.0019809103 0.0058001494 0.0010823475 0.021938695 -0.0013640949 0.007829538
-0.01950057 0.0021225745 -0.012173874 -0.005553472 0.013978792 0.00896728 -0.014936427 0.006500874
-0.0032620048 -0.005057307 -0.0065883854 -0.0031192198 0.0065270076 -0.004437623 0.0041925637 0.0007030993
0.0015761348 -0.0003708131 0.0051061064 -0.0007822376 0.0012339404 0.0011987346 -0.00850972 -0.011307638
-0.005740608 -0.011501512 -0.001619505 -0.004684184 -0.002925079 0.013636556 -6.895134e-07 0.006660581
-0.004880406 -0.0020538932 0.004102691 0.0058666673 -0.003423827 0.004985687 -0.011710312 0.0049986728
-0.00035135512 -0.0074553536 0.000684428 -0.0008778778 -7.2090144e-05 -0.0009828025 0.0032075522 -0.004341936
-0.003971951 0.0037206076 0.0019875742 -0.0035122037 0.0036015857 -0.0036900465 0.0049065473 -0.005336474
-0.009387345 0.0071428837 0.0021123826 0.0033843555 0.004200731 -0.0053044287 -0.0023350236 0.0019499841
7.3708e-07 -4.3795253e-06 1.6943659e-08 -3.3301883e-06 -1.0291185e-06 -5.0385183e-06 8.007931e-06 3.2078567e-06
-3.3056183e-06 5.8980304e-06 1.6465541e-06 -2.1814526e-06 -2.75703e-06 -3.1962902e-06 -4.465325e-06 -2.2734644e-06
-2.153185e-06 1.7887494e-06 -3.2784465e-07 3.4165325e-06 1.7320035e-06 3.661782e-06 8.058192e-06 5.135183e-06
-2.3680618e-06 -7.5993776e-06 -5.461565e-06 2.2205645e-06 6.7725077e-06 2.4614594e-06 -4.4888493e-06 1.289522e-06
2.8637596e-06 1.0799669e-05 -4.58535e-06 -1.9714066e-06 -2.1540627e-06 -6.0119305e-07 -1.6538206e-06 -1.904146e-06
-2.507761e-06 2.6609537e-06 2.5156914e-06 -3.1665018e-06 2.8087056e-06 8.581187e-07 -1.830521e-05 -3.8153826e-06
2.4016279e-06 3.6674414e-06 8.185167e-06 -6.2818335e-06 1.2649717e-05 -2.4987685e-07 -3.0610972e-06 -2.0523462e-06
9.065079e-07 -5.9587824e-06 -8.041229e-08 8.56582e-06 8.014818e-06 5.457514e-06 7.013955e-06 -2.4578235e-06
9.177437e-06 3.928908e-06 -1.24159515e-05 -1.4631902e-06 -4.173837e-06 2.1084484e-06 2.216446e-06 5.83908e-06
4.7137946e-06 2.646252e-07 1.7465487e-06 6.097812e-07 -3.3743852e-06 -2.892812e-06 -1.2593059e-06 5.703448e-06
-1.9039635e-07 3.3911147e-06 1.08553695e-05 2.1202547e-06 -9.668831e-07 2.0223124e-06 2.4895157e-06 -3.6493827e-06
8.052459e-06 1.8793278e-06 3.3678775e-06 8.358729e-06 -5.866573e-07 -3.791372e-07 1.1065249e-05 -1.0324811e-06
00000000: d6bc 8e3b 4180 983b d2b5 29bc cf8c fab9
00000010: 2aae 8dba e448 5fbb d0c4 b1b8 b32e aabb
00000020: 1142 133b 38b6 6e3a ad9b 253c 8e0a 86bc
00000030: 8d93 d4bb 0917 133c be89 d53a f2ca 8eba
00000040: e40d 473b c372 513c 11d5 02bc 4783 5fba
00000050: d26f 49bb f89e 5f3c 73b7 88bc 4add 14bb
00000060: 95b6 03bb 1f7e 98ba 6a68 1ebc fcec 883b
00000070: b040 5bb8 248e 03bb b423 843b 1db6 abbb
00000080: 981d 3f3c bea0 843b 6c43 273c a953 403b
00000090: 3a49 e93b d229 ac3a 7efe 86bc b7ea 2fbc
000000a0: dae2 8a3c c150 8539 5580 d43b b5fb fabc
000000b0: 568d 9fbc 5b58 4c3c d4a0 223b c22a d13c
000000c0: 8b18 e73b 2b38 8abc 927c 7abb 63cc f2bc
000000d0: 88e2 113c ceac e7bb aef5 6a3b bb00 37bc
000000e0: 3fd2 273c 33b3 273c 7e04 243c 5a7a ae3a
000000f0: 453c 95ba 451c 95bb 4562 ac3c 055c ebbb
00000100: 4007 32bc de00 d839 cdbb c83c 797a 80ba
00000110: 4e52 2cba 476a 1b3c 6855 8abc 576f ea3b
00000120: c390 5eba 2e13 d6bb faac 9bbb 352e 853c
00000130: 0ece 3e3c c217 73bb ea29 0d3c 31dd 71bc
00000140: 2ac9 143a bcfd dabc ea09 e83c 1008 5b39
00000150: b6f6 a33b 90ad 00bc 7923 ec3b 3c32 3ebc
00000160: def6 0abc c594 c33b 29d2 013b 2e0f be3b
00000170: 8edd 8d3a c7b8 b33c 6ecb b2ba 7647 003c
00000180: a9bf 9fbc e41a 0b3b ee74 47bc e6f9 b5bb
00000190: 4e07 653c 80eb 123c eab7 74bc 4905 d53b
000001a0: 5cc7 55bb c4b7 a5bb 62e3 d7bb d36b 4cbb
000001b0: 82e0 d53b 7b69 91bb c661 893b 3250 383a
000001c0: 4f96 ce3a b169 c2b9 2051 a73b 140f 4dba
000001d0: 2bbc a13a dc1e 9d3a 5a6c 0bbc ac43 39bc
000001e0: b61b bcbb d670 3cbc 9245 d4ba c97d 99bb
000001f0: afb2 3fbb dd6b 5f3c 0017 39b5 0141 da3b
00000200: d0eb 9fbb 9c9a 06bb de6f 863b 2c3d c03b
00000210: 4962 60bb f95e a33b 9cdc 3fbc e8cb a33b
00000220: 1636 b8b9 0a4c f4bb 306b 333a 6221 66ba
00000230: 1a2f 97b8 61d1 80ba cc35 523b cd46 8ebb
00000240: 2427 82bb 70d5 733b f641 023b 002d 66bb
00000250: 9508 6c3b b5d4 71bb 1ac7 a03b 97dd aebb
00000260: 61cd 19bc da0e ea3b e66f 0a3b 10cc 5d3b
00000270: 49a6 893b c6d0 adbb 3207 19bb 9c96 ff3a
00000280: c0db 4535 d6f3 92b6 808b 9132 337c 5fb6
00000290: 3e20 8ab5 8b10 a9b6 cd59 0637 8f46 5736
000002a0: 17d6 5db6 b2e7 c536 2bff dc35 1265 12b6
000002b0: 6a05 39b6 d97f 56b6 dad4 95b6 d291 18b6
000002c0: 707f 10b6 f614 f035 a002 b0b4 9547 6536
000002d0: 3077 e835 f0bc 7536 ac31 0737 e34e ac36
000002e0: feea 1eb6 28fe feb6 7c42 b7b6 0205 1536
000002f0: 663f e336 8d2f 2536 ec9e 96b6 a313 ad35
00000300: 042f 4036 3a30 3537 dbdb 99b6 824c 04b6
00000310: 848e 10b6 ac61 21b5 d8f8 ddb5 f591 ffb5
00000320: 024b 28b6 d692 3236 40d3 2836 1680 54b6
00000330: 327d 3c36 7859 6635 248e 99b7 e305 80b6
00000340: a72b 2136 2a1e 7636 0653 0937 8ac8 d2b6
00000350: 1f3a 5437 d026 86b4 406d 4db6 0abb 09b6
00000360: c056 7335 8df1 c7b6 20af acb3 ebb5 0f37
00000370: 6277 0637 b01f b736 6a59 eb36 16f1 24b6
00000380: cbf8 1937 10d5 8336 1b4e 50b7 d562 c4b5
00000390: fd0c 8cb6 de7e 0d36 41be 1436 51ed c336
000003a0: 302b 9e36 d011 8e34 f56a ea35 d8af 2335
000003b0: 7f73 62b6 2222 42b6 6c05 a9b5 3f60 bf36
000003c0: c06f 4cb4 e892 6336 751f 3637 b349 0e36
000003d0: dac5 81b5 10b7 0736 8e11 2736 ebe7 74b6
000003e0: 0c19 0737 363d fc35 b203 6236 783c 0c37
000003f0: c87a 1db5 388c cbb4 e2a4 3937 c893 8ab5

bert.embeddings.LayerNorm.weight f4 [32]
0.29350355 0.32203117 0.2422794 0.21915542 0.2704266 0.2512735 0.35759223 0.17471418
0.2070628 0.29642332 0.36305416 0.2882821 0.2382175 0.31154487 0.2708444 0.30443123
0.29880884 0.43660387 0.44413933 0.16631073 0.26505756 0.31197584 0.2880608 0.28221253
0.30893114 0.25092897 0.33253282 0.22689624 0.24647123 0.39791623 0.22350258 0.34354
00000000: 1946 963e 45e1 a43e 1718 783e 476a 603e
00000010: 5b75 8a3e eca6 803e 5416 b73e 46e8 323e
00000020: 4508 543e ccc4 973e 3ce2 b93e b699 933e
00000030: 4aef 733e cf82 9f3e 1eac 8a3e 69de 9b3e
00000040: 79fd 983e 8b8a df3e 3b66 e33e 5c4d 2a3e
00000050: a0b5 873e 4cbb 9f3e b57c 933e 297e 903e
00000060: 392c 9e3e c379 803e be41 aa3e 7d57 683e
00000070: f462 7c3e adbb cb3e dcdd 643e 7ae4 af3e

bert.embeddings.LayerNorm.bias f4 [32]
-0.010694776 -0.0054880353 0.007996228 -0.008342267 0.011521218 -0.0068798317 -0.0014841625 -0.012835416
-0.027340386 -0.018182395 0.006944645 0.034128707 0.024927087 -0.010800355 -0.0006371728 -0.00837203
0.013511262 -0.011536654 0.023108741 0.014867408 -0.004596257 -0.023378737 0.025664976 0.0011994259
-0.011243193 -0.017539563 -0.010097095 -0.0018083995 -0.0022835063 0.028522264 0.004146312 0.004916453
00000000: 2439 2fbc fad4 b3bb 9c02 033c 01ae 08bc
00000010: 7ec3 3c3c 3670 e1bb 3b88 c2ba a34b 52bc
00000020: f2f8 dfbc 3ff3 94bc e88f e33b 8bca 0b3d
00000030: e433 cc3c f9f3 30bc f107 27ba d72a 09bc
00000040: 575e 5d3c 3c04 3dbc 8b4e bd3c 6e96 733c
00000050: 339c 96bb c484 bfbc 5b3f d23c 0e36 9d3a
00000060: 5f35 38bc 21af 8fbc 496e 25bc d107 edba
00000070: e1a6 15bb 86a7 e93c c9dd 873b 321a a13b

bert.encoder.layer.0.attention.self.query.weight f4 [32, 32]
-3.250258e-05 3.7056589e-06 9.253263e-06 1.0854777e-05 -3.5633186e-06 -1.0454367e-05 -5.5359606e-06 -1.6684967e-06
1.0007532e-05 -1.2615048e-05 -1.2075818e-06 2.2877798e-06 -7.6625865e-06 3.2320427e-06 6.1694627e-06 -4.1074645e-06
4.0990712e-06 -8.6165755e-06 1.8286462e-06 9.3119e-06 -9.429118e-07 4.139458e-06 2.2946324e-06 6.03254e-06
7.919829e-06 7.500843e-06 -1.0171543e-06 -1.5072721e-06 4.4147164e-06 -2.5519852e-05 -5.4257544e-06 1.4134468e-05
1.3493421e-05 5.5317637e-06 -6.8354934e-06 1.1838996e-05 1.0480175e-05 -4.553492e-06 -6.3267935e-06 6.2597464e-06
-3.705372e-06 -1.1054316e-06 8.326479e-06 -5.342241e-06 1.3301173e-05 -4.8936763e-06 -5.8051255e-06 -6.9521466e-06
-1.4994315e-05 7.0056785e-06 -8.622952e-06 -2.3320536e-06 -7.518008e-06 -1.1977987e-05 1.0807971e-05 5.3703884e-06
-5.567146e-06 4.683209e-06 6.827224e-08 6.156366e-06 9.0806825e-06 7.4335635e-06 -4.219719e-06 1.2591138e-05
-1.8736917e-05 1.4214335e-05 7.703302e-06 -1.0276904e-05 4.3429427e-06 -3.101882e-06 3.2913135e-06 6.443231e-07
-7.9206875e-06 6.668497e-06 -3.0801698e-07 9.024005e-06 -8.98893e-06 -1.6404143e-05 -3.9483193e-06 2.2633547e-05
-5.3808344e-06 2.1993392e-06 1.087175e-05 5.4816037e-06 -1.4852867e-07 -6.006471e-07 -1.3314815e-05 -1.3279978e-06
8.719737e-07 4.5073834e-06 3.596424e-07 -2.0842504e-05 3.6982237e-06 1.3684853e-06 1.382765e-05 5.671481e-06
-3.957339e-05 7.873784e-06 3.5347562e-06 -1.5237609e-05 -8.555871e-06 1.9243234e-06 -1.1720044e-05 6.7415394e-06
1.252504e-05 1.0372569e-05 3.5498357e-07 9.239946e-06 5.1539737e-06 -5.247325e-07 -9.420637e-06 -5.6722456e-06
-2.5129402e-06 1.0550587e-05 5.489238e-06 -7.753338e-06 4.542774e-06 -1.8095832e-05 -1.4716775e-06 -1.4524176e-05
-6.4841765e-06 1.26054e-05 -5.615319e-06 8.656325e-06 1.8146966e-07 -1.242271e-05 5.805823e-06 4.542859e-06
3.1032847e-05 1.9120262e-07 2.7084338e-06 3.0835905e-05 -3.7536092e-06 -4.5714833e-06 -4.172899e-06 -6.3158586e-07
1.9482186e-06 9.677522e-06 1.7914545e-07 -5.057684e-06 -2.1754291e-05 -5.811068e-06 6.1177348e-06 -8.705147e-06
1.3192083e-05 2.2763408e-05 1.7475199e-05 2.2309587e-05 -6.996909e-06 -1.6062577e-05 -1.1479067e-05 1.9016703e-05
-1.1016461e-05 -1.3011191e-05 -1.634723e-05 -2.2177004e-05 1.7368811e-05 -4.8685533e-06 -2.3953568e-05 8.14754e-06
-1.7422512e-05 1.2054597e-05 -5.294926e-06 -1.83892e-05 -1.4364356e-05 -2.9769126e-07 1.8937459e-05 -2.8184277e-06
1.44238065e-05 -2.7496753e-05 8.161346e-07 -1.3386757e-05 1.2080193e-05 1.42994595e-05 -1.8201481e-05 -1.0388023e-06
1.2575218e-05 -9.099787e-06 -4.6408504e-06 2.4553869e-05 -8.470044e-06 -1.5423073e-05 -1.5318885e-05 -1.5772952e-05
-1.6327187e-05 1.604587e-05 -1.9843956e-05 -1.906947e-05 -5.6298236e-06 -1.9248593e-05 1.4738759e-05 1.2867726e-05
-1.0318379e-05 1.0887978e-05 2.396557e-06 9.830378e-06 1.3605005e-05 -8.054649e-06 -2.3242113e-05 -1.5009507e-05
-3.0157817e-06 -5.753462e-06 2.5825799e-05 -1.1838227e-05 -1.1654506e-05 -1.6339005e-05 -9.272583e-06 -6.761814e-06
-2.3310783e-06 -6.1371143e-06 5.59439e-06 2.1884462e-06 -1.0526849e-05 -2.4555146e-05 -8.413258e-06 9.045385e-06
8.537606e-06 2.7438864e-06 -1.49265015e-05 -5.874845e-06 -1.0563982e-05 6.13662e-06 1.0180427e-05 3.4866703e-06
-1.5373631e-05 1.3413524e-05 -3.3628398e-06 1.8267247e-06 -6.455755e-06 -5.5927994e-06 4.661233e-07 2.6302303e-06
2.976652e-06 -2.0532207e-07 -4.058622e-06 -3.9241904e-06 -6.9825537e-06 -7.1966874e-06 -1.3390476e-05 5.905852e-06
-9.228352e-06 -3.3902427e-06 -4.1355433e-06 7.660326e-07 3.7614655e-06 6.996125e-06 1.3659446e-05 -3.0384372e-06
6.139345e-06 -1.3367999e-06 -4.0542373e-06 2.2585991e-06 5.883511e-06 1.112414e-05 -3.3916422e-07 -2.194296e-06
00000000: 6153 08b8 bcae 7836 763e 1b37 ea1c 3637
00000010: 5921 6fb6 2a65 2fb7 8ac1 b9b6 1cf1 dfb5
00000020: 06e6 2737 38a5 53b7 3214 a2b5 c287 1936
00000030: 8f8e 00b7 12e6 5836 4803 cf36 dad2 89b6
00000040: c18a 8936 e98f 10b7 ce6f f535 4e3a 1c37
00000050: 681c 7db5 ace5 8a36 7cfd 1936 206b ca36
00000060: 68df 0437 c0af fb36 2885 88b5 7a4d cab5
00000070: 2022 9436 7713 d6b7 e00e b6b6 1423 6d37
00000080: cd61 6237 7d9d b936 715c e5b6 1aa0 4637
00000090: 02d4 2f37 33ca 98b6 be4a d4b6 d00a d236
000000a0: cea9 78b6 575e 94b5 f4b1 0b37 8041 b3b6
000000b0: 1a28 5f37 5c34 a4b6 a6c9 c2b6 7c46 e9b6
000000c0: 1890 7bb7 5212 eb36 4cab 10b7 6080 1cb6
000000d0: 3243 fcb6 10f5 48b7 e253 3537 4933 b436
000000e0: 6ccd bab6 7624 9d36 109d 9233 c892 ce36
000000f0: 3c59 1837 d36d f936 1c97 8db6 873e 5337
00000100: 392d 9db7 1b7a 6e37 6e3d 0137 f76a 2cb7
00000110: 98b9 9136 ed29 50b6 56e0 5c36 8cf5 2c35
00000120: 18e3 04b7 f4c1 df36 885d a5b4 ce65 1737
00000130: 29cf 16b7 a19b 89b7 ce7b 84b6 2cdd bd37
00000140: 048d b4b6 5c98 1336 d065 3637 9eee b736
00000150: 407b 1fb4 283c 21b5 b262 5fb7 a83d b2b5
00000160: 9411 6a35 213e 9736 e014 c134 f0d6 aeb7
00000170: 002f 7836 ccac b735 4efd 6737 a74d be36
00000180: 9bfb 25b8 a519 0437 a636 6d36 08a5 7fb7
00000190: 308b 0fb7 a023 0136 35a1 44b7 6235 e236
000001a0: a322 5237 d805 2e37 9294 be34 4405 1b37
000001b0: 4cf0 ac36 58db 0cb5 540d 1eb7 3854 beb6
000001c0: fca3 28b6 6d02 3137 3230 b836 5514 02b7
000001d0: 226e 9836 81cc 97b7 7486 c5b5 dcac 73b7
000001e0: a792 d9b6 c87b 5337 396b bcb6 a23a 1137
000001f0: 00da 4234 226b 50b7 a4cf c236 dd6e 9836
00000200: 4429 0238 604d 4d34 8ac2 3536 cd55 0138
00000210: 84e6 7bb6 be64 99b6 ee04 8cb6 408a 29b5
00000220: 24be 0236 a45c 2237 205b 4034 2db5 a9b6
00000230: fc7c b6b7 b2fc c2b6 f146 cd36 520c 12b7
00000240: 9153 5d37 0cf4 be37 b497 9237 7925 bb37
00000250: fec6 eab6 1fbe 86b7 3896 40b7 0f86 9f37
00000260: 57d3 38b7 a44a 5ab7 6921 89b7 c108 bab7
00000270: 3db3 9137 8e5c a3b6 e5ef c8b7 6bb1 0837
00000280: 8f26 92b7 1a3e 4a37 11ab b1b6 8242 9ab7
00000290: 70fe 70b7 60d2 9fb4 e2db 9e37 3824 3db6
000002a0: c7fd 7137 d4a8 e6b7 5814 5b35 af97 60b7
000002b0: 09ac 4a37 b6e7 6f37 62af 98b7 fa6c 8bb5
000002c0: 26fa 5237 4aab 18b7 9ab8 9bb6 08f9 cd37
000002d0: 901a 0eb7 cc60 81b7 0e81 80b7 2850 84b7
000002e0: 5ef6 88b7 3e9a 8637 9276 a6b7 60f7 9fb7
000002f0: d1e7 bcb6 0a78 a1b7 7d46 7737 76e2 5737
00000300: 1a1d 2db7 82ab 3637 89d4 2036 27ed 2437
00000310: 0d41 6437 7422 07b7 0ff8 c2b7 57d1 7bb7
00000320: bc62 4ab6 dd0d c1b6 7ba4 d837 cc9c 46b7
00000330: b987 43b7 bf0f 89b7 7191 1bb7 8ae3 e2b6
00000340: 9f6f 1cb6 69ed cdb6 72b7 bb36 38dd 1236
00000350: 799c 30b7 c6fb cdb7 ab26 0db7 a2c1 1737
00000360: bd3c 0f37 9c23 3836 d66c 7ab7 8920 c5b6
00000370: f53b 31b7 2ae9 cd36 9acc 2a37 8afc 6936
00000380: 9ff6 80b7 a60a 6137 26ad 61b6 c82d f535
00000390: 839e d8b6 c8a9 bbb6 803f fa34 0383 3036
000003a0: 7ec2 4736 8076 5cb4 4c2f 88b6 8aac 83b6
000003b0: ae4b eab6 137b f1b6 a8a7 60b7 e22a c636
000003c0: 78d3 1ab7 ed83 63b6 0cc4 8ab6 5ca1 4d35
000003d0: 7c6d 7c36 42c0 ea36 e02a 6537 f4e7 4bb6
000003e0: 9200 ce36 186c b3b5 a209 88b6 7092 1736
000003f0: fa6a c536 d1a1 3a37 6016 b6b4 b841 13b6

bert.encoder.layer.0.attention.self.query.bias f4 [32]
-5.665811e-07 -1.446357e-05 8.487745e-06 -2.583095e-06 -1.0295458e-05 2.1453234e-05 1.0056729e-05 -1.2758961e-05
-6.565256e-08 3.1244428e-05 -1.5962942e-05 -1.1554019e-05 -1.609922e-06 -5.3330314e-07 3.526713e-06 4.7457274e-06
-1.00764555e-05 1.634069e-05 -1.729996e-05 -1.1010434e-05 2.0787327e-05 -2.6077423e-06 1.7906672e-05 -3.8202206e-06
-2.9252487e-06 -8.754136e-06 -3.9498636e-06 -4.4998524e-06 9.691759e-06 2.703248e-05 -4.2154497e-06 -1.4643463e-05
00000000: 2817 18b5 8fa8 72b7 9666 0e37 3c59 2db6
00000010: a8ba 2cb7 78f6 b337 52b9 2837 520f 56b7
00000020: e0fc 8cb3 730c 0338 28e8 85b7 22d8 41b7
00000030: 8014 d8b5 5028 0fb5 78ac 6c36 7d3d 9f36
00000040: 0c0e 29b7 5d13 8937 621f 91b7 74b9 38b7
00000050: 7260 ae37 ac00 2fb6 4936 9637 722f 80b6
00000060: 644f 44b6 bade 12b7 1289 84b6 70fd 96b6
00000070: ca99 2237 cfc3 e237 7072 8db6 32ad 75b7

bert.encoder.layer.0.attention.self.key.weight f4 [32, 32]
-1.203776e-05 1.3473613e-06 1.6786653e-05 -1.2268357e-05 3.00585e-06 1.6922455e-05 8.29757e-06 -3.0939082e-06
2.8630197e-06 2.350479e-05 -1.0183839e-05 -9.222346e-06 1.7427874e-05 -1.759339e-06 1.0346365e-05 1.4202874e-05
4.5064753e-06 7.042288e-06 6.021739e-06 -7.3120223e-06 3.3839524e-06 2.0833108e-06 -9.517682e-06 3.2369535e-06
-1.0627621e-05 -1.610549e-05 -1.4332862e-05 -6.393435e-06 8.155747e-06 2.6327943e-06 8.946602e-06 1.7472328e-05
2.92933e-05 -1.0920951e-05 9.70391e-06 7.771256e-06 -7.084882e-07 -1.2531025e-05 -2.6072116e-06 -7.104745e-07
-1.8685172e-05 -1.5406649e-06 -5.1171282e-06 2.1044816e-06 8.228956e-06 6.359324e-06 1.1058475e-05 -2.480825e-06
1.25353e-05 8.425206e-06 -3.2016756e-06 -1.6744789e-06 -6.0148036e-06 -9.531024e-06 1.7111372e-05 -1.579725e-05
-6.211183e-06 3.3883143e-06 5.9947283e-06 1.5534237e-05 -9.545862e-06 -1.2639287e-05 -2.6791424e-06 -3.477036e-06
6.8947516e-06 1.549226e-05 -3.4923958e-06 5.2589994e-06 -3.6031533e-06 -7.1457875e-06 -1.39856975e-05 1.1187167e-05
-1.6657443e-05 1.3652172e-05 -1.0697295e-05 2.0419668e-06 -1.09212215e-05 3.3343258e-07 4.0055666e-06 9.0471185e-06
-2.2146512e-05 3.4160976e-06 1.2601096e-05 1.3086374e-05 -1.4232727e-06 9.317291e-06 -7.458499e-06 1.03181264e-07
-9.588351e-06 -5.055635e-06 -1.87566e-05 2.7195183e-05 -1.8512907e-05 -9.994572e-06 -4.614676e-06 1.7090444e-05
5.2031405e-06 -1.5512792e-06 2.4378578e-05 -1.3853175e-05 1.372461e-05 -1.0471267e-05 -3.84732e-06 1.3907033e-06
1.3496165e-06 7.2235916e-06 -1.893207e-05 1.0112862e-05 -7.5833495e-06 1.2573106e-05 5.92395e-06 4.2023357e-06
8.963874e-06 -3.6878173e-06 -6.0809857e-06 -4.615619e-06 -1.4484947e-05 8.998517e-06 -1.2556011e-06 1.409545e-05
-3.9193e-06 -9.637621e-06 -1.0788526e-05 9.626374e-07 5.159453e-06 1.0204419e-06 -6.888729e-06 -1.2429089e-05
-2.9083549e-05 1.6379314e-05 -1.4760011e-05 -2.057181e-05 -3.7816317e-06 3.1359195e-07 -1.9341715e-05 1.1742417e-05
-1.6648535e-05 1.3678729e-05 -1.7712824e-05 2.1530777e-06 -2.1361238e-05 1.797522e-05 -2.3499942e-06 -2.4988312e-05
-4.8553616e-06 3.0076446e-06 -9.378762e-06 -2.3011373e-06 3.3132972e-05 -2.6184083e-05 2.5654586e-05 9.677549e-06
1.60542e-06 -1.0674171e-06 -2.9050918e-05 -3.945185e-06 -1.5190945e-05 8.958974e-06 -8.222723e-06 2.1697783e-06
-2.9531811e-05 1.4830198e-06 -1.0764001e-05 2.3646704e-05 -1.9668496e-05 -2.9422492e-05 2.4946281e-05 -2.1544138e-05
6.255068e-06 1.8041932e-05 1.1378334e-05 2.1312268e-05 -4.1956573e-06 -6.7439732e-06 -8.14959e-06 -1.1329008e-05
-1.9736306e-05 -1.7157792e-05 4.3392056e-06 -3.5314924e-06 -1.441568e-05 -1.5607326e-05 -1.4585116e-06 -8.510258e-06
1.5148655e-05 -1.322208e-05 1.9454605e-05 6.9617727e-07 8.448807e-06 -2.090913e-05 -1.7294074e-06 8.7088065e-06
-1.9562165e-05 -3.0794827e-06 1.920068e-06 -8.395365e-06 -3.089031e-05 1.6385657e-05 -2.6306274e-05 -5.7509706e-06
6.234733e-06 2.1005542e-06 1.12825e-06 -2.80674e-06 -5.8281807e-06 -1.0481094e-05 -6.6643174e-06 -1.0110148e-05
-1.2401328e-05 1.6547277e-05 -7.844505e-06 1.041358e-05 -1.2882945e-05 -7.336557e-07 -1.874947e-05 1.6228717e-06
2.0482194e-05 -1.7079918e-05 3.685412e-06 -1.8598443e-05 7.4882355e-06 -9.180774e-06 -1.7351113e-08 2.140937e-05
-1.3544713e-05 5.2865544e-06 -5.258639e-06 -1.9010577e-06 1.451919e-05 5.9937393e-06 -3.6998777e-06 1.6036753e-05
-1.8566055e-06 1.0977657e-05 1.3739294e-05 -2.7654146e-06 9.144336e-06 -4.031102e-06 7.5115877e-06 -6.6837756e-06
-1.0300798e-05 -1.0772192e-05 1.0523961e-05 2.527238e-06 1.5403242e-05 6.5868953e-06 -1.166649e-05 -1.445218e-05
8.470139e-06 -1.2137423e-05 2.5902275e-06 -4.083041e-06 -9.2103e-06 6.7854708e-06 -2.2921463e-06 8.741218e-06
00000000: c9f5 49b7 fbd6 b435 10d1 8c37 31d4 4db7
00000010: 1cb8 4936 b2f4 8d37 cb35 0b37 f0a0 4fb6
00000020: 4e22 4036 272c c537 41db 2ab7 adb9 1ab7
00000030: 1332 9237 6e22 ecb5 4d95 2d37 e148 6e37
00000040: 5436 9736 cb4c ec36 580e ca36 cb59 f5b6
00000050: dc17 6336 02cf 0b36 22ae 1fb7 703a 5936
00000060: 494d 32b7 471a 87b7 2c77 70b7 3087 d6b6
00000070: abd4 0837 10af 3036 5d19 1637 8a91 9237
00000080: e2ba f537 2139 37b7 facd 2237 4a61 0237
00000090: f02e 3eb5 583c 52b7 8ef7 2eb6 70b7 3eb5
000000a0: 1abe 9cb7 d8c8 ceb5 ccb3 abb6 b83a 0d36
000000b0: 190f 0a37 2d62 d536 ca87 3937 407c 26b6
000000c0: b44e 5237 fc59 0d37 5edc 56b6 a8be e0b5
000000d0: c5d2 c9b6 70e7 1fb7 648a 8f37 5684 84b7
000000e0: a869 d0b6 cc62 6336 5326 c936 854f 8237
000000f0: 2a27 20b7 530d 54b7 51cb 33b6 0657 69b6
00000100: 7759 e736 60f5 8137 e75e 6ab6 7676 b036
00000110: b4cd 71b6 d9c5 efb6 1da4 6ab7 84b0 3b37
00000120: 96bb 8bb7 a20b 6537 8878 33b7 b908 0936
00000130: 4a3a 37b7 a002 b334 8e67 8636 14c9 1737
00000140: 46c7 b9b7 1c40 6536 4c69 5337 8c8d 5b37
00000150: 4707 bfb5 7651 1c37 0544 fab6 8094 dd33
00000160: a7dd 20b7 93a3 a9b6 7e57 9db7 3621 e437
00000170: 2a4c 9bb7 5cae 27b7 c4d7 9ab6 735d 8f37
00000180: a396 ae36 8c35 d0b5 9980 cc37 ef6a 68b7
00000190: c042 6637 c0ad 2fb7 3a18 81b6 34a8 ba35
000001a0: 7824 b535 2e62 f236 50d0 9eb7 69aa 2937
000001b0: 7a74 feb6 14f1 5237 58c6 c636 ca01 8d36
000001c0: 8c63 1637 387c 77b6 450b ccb6 dedf 9ab6
000001d0: 6004 73b7 56f8 1637 2086 a8b5 7f7b 6c37
000001e0: 8882 83b6 44b1 21b7 5e00 35b7 f833 8135
000001f0: 5d1f ad36 1ef6 8835 bb25 e7b6 8886 50b7
00000200: 72f8 f3b7 4f66 8937 c4a1 77b7 a091 acb7
00000210: f0c7 7db6 c05b a834 0440 a2b7 4c01 4537
00000220: 75a8 8bb7 b27d 6537 0096 94b7 987d 1036
00000230: e930 b3b7 7ec9 9637 98b4 1db6 fe9d d1b7
00000240: 3deb a2b6 f1d6 4936 7a59 1db7 3d6d 1ab6
00000250: 42f8 0a38 e4a5 dbb7 ce34 d737 c25c 2237
00000260: d079 d735 2c44 8fb5 5fb2 f3b7 e260 84b6
00000270: 9ddc 7eb7 804e 1637 54f4 09b7 829c 1136
00000280: 15bb f7b7 2c0c c735 0897 34b7 e95c c637
00000290: c6fd a4b7 52d0 f6b7 bb43 d137 afb9 b4b7
000002a0: a0e2 d136 c158 9737 93e5 3e37 bfc7 b237
000002b0: 6cc8 8cb6 4a4a e2b6 39ba 08b7 b811 3eb7
000002c0: 658f a5b7 14ee 8fb7 7e99 9136 94fe 6cb6
000002d0: e0da 71b7 7aec 82b7 14c2 c3b5 48c7 0eb7
000002e0: fa26 7e37 67d4 5db7 7232 a337 f0e0 3a35
000002f0: 5abf 0d37 0466 afb7 fc1d e8b5 0a1c 1237
00000300: 6e19 a4b7 1ca9 4eb6 84da 0036 d1d9 0cb7
00000310: 3890 01b8 ee73 8937 4bac dcb7 76f8 c0b6
00000320: f333 d136 3ff7 0c36 606e 9735 6d5b 3cb6
00000330: b18f c3b6 f5d7 2fb7 0d9e dfb6 c19e 29b7
00000340: 4c0f 50b7 02cf 8a37 e49b 03b7 fcb5 2e37
00000350: d423 58b7 70f0 44b5 2e48 9db7 72d1 d935
00000360: 2dd1 ab37 d846 8fb7 e552 7736 da03 9cb7
00000370: 7443 fb36 2007 1ab7 800b 95b2 4698 b337
00000380: 193e 63b7 2863 b136 5d73 b0b6 d827 ffb5
00000390: 7297 7337 d41d c936 6a4b 78b6 aa86 8637
000003a0: 7b30 f9b5 ae2c 3837 d281 6637 7695 39b6
000003b0: a06a 1937 e742 87b6 0c0c fc36 3245 e0b6
000003c0: 97d1 2cb7 36ba 34b7 1190 3037 9e99 2936
000003d0: 3636 8137 0005 dd36 31bb 43b7 a477 72b7
000003e0: f81a 0e37 d6a1 4bb7 c5d3 2d36 0e01 89b6
000003f0: f085 1ab7 c0ae e336 c6d2 19b6 3fa7 1237

bert.encoder.layer.0.attention.self.key.bias f4 [32]
8.2340955e-07 -9.0019785e-07 -1.7881772e-06 1.4049342e-06 1.2436135e-07 7.909581e-07 1.7573129e-06 -1.183739e-06
1.7974194e-06 -9.760167e-07 -2.0666482e-06 -1.1302269e-06 1.5351403e-06 -8.3585155e-07 -8.832726e-07 1.8867539e-06
1.0306865e-06 -1.2503344e-06 -1.0349772e-06 2.600845e-06 1.1275683e-06 2.5990973e-06 -1.6040889e-06 -7.53011e-07
-4.913545e-07 -8.167218e-07 1.9786826e-06 2.4430565e-06 -1.7740076e-06 -2.0155699e-07 2.341317e-06 -1.7644418e-06
00000000: 4608 5d35 20a5 71b5 4d01 f0b5 2c91 bc35
00000010: 3088 0534 3a52 5435 d0dc eb35 f6e0 9eb5
00000020: dc3e f135 aeff 82b5 bfb0 0ab6 4db2 97b5
00000030: 050b ce35 485f 60b5 081a 6db5 5f3c fd35
00000040: 1e56 8a35 2ad1 a7b5 8ce9 8ab5 2d8a 2e36
00000050: f456 9735 276c 2e36 134c d7b5 8622 4ab5
00000060: a0e5 03b5 b23c 5bb5 82c9 0436 64f3 2336
00000070: 701a eeb5 906b 58b4 851f 1d36 c2d1 ecb5
