Graph-Bert/result/PreTrained_GraphBert/ppi/node_classification_complete_model/pytorch_model.bin (torch_old, 548302 bytes, 47 tensors)

bert.embeddings.raw_feature_embeddings.weight f4 [32, 1000]
0.02183848 0.007329579 -0.005380046 -0.050160956 -0.0708431 0.049965475 -0.030451009 -0.020755531
0.0077233473 -0.015450308 0.036084704 -0.0011608958 0.009194541 -0.01244839 0.013282964 -0.0050434745
-0.0028859137 -0.010004183 0.0018151667 0.010720878 -0.0014315754 -0.0048267334 0.013301607 -0.0049139117
0.018790511 0.04453055 0.017030321 -0.04714241 -0.04872628 -0.037778404 -0.022030266 -0.0016949596
-0.03837238 -0.024917917 -0.027612066 0.016002668 -0.0018550706 -0.0059348634 -0.007810893 -0.02727304
0.008122031 -0.031188017 -0.019989131 -0.00051328196 -0.0004686943 -0.00458067 0.0010528816 -0.004145769
-0.00020728126 -0.0013964337 -0.008599629 0.0002790852 -0.00083586044 -0.004313743 4.0208644e-05 -0.012810009
0.01022261 0.0023360034 -0.0011212133 0.01066749 0.019658277 0.0017060166 0.001328011 -0.002148662
0.00048218042 7.8604964e-05 -0.0010140243 -0.002970472 -0.0014343689 -0.00066109956 0.0021106866 0.006239665
-0.0016767976 -0.0019388404 -0.0038934126 0.0011890972 -6.209381e-05 -0.014200575 0.0033053881 -0.00076536386
0.0050800466 0.01771044 0.009884777 0.015440011 -0.008156925 0.002398209 -0.0068810415 0.00096056587
-0.00045130565 0.0032257661 0.008216623 0.016574237 -0.0003716318 -0.0035212822 0.0043157656 -0.0008777561
0.01047427 0.000896233 0.0058820564 -0.0072907866 0.0071589435 -0.008233365 0.018434117 0.01526349
-0.015975464 0.0343983 0.027614495 0.0017472252 -0.008354772 -0.036465775 -0.023570703 0.039458442
-0.00496109 0.016545273 -0.020396251 -0.033527713 0.019634036 0.0096386615 0.0064553726 0.013446525
0.01696322 -0.0070144935 0.005975648 -0.003649728 -0.006586887 -0.010647043 -0.0026519056 -0.003376914
0.0010057469 0.0035005047 0.013711786 -0.005248685 -0.00040154916 -0.022369144 0.0008466051 0.00041345347
0.0013499147 -0.0058825416 -0.005188567 0.0007742071 -0.0061732717 0.034451503 0.008554804 0.03899906
0.03222678 -0.026266651 -0.0007514489 0.014000303 -0.019710554 0.007810431 -0.006095137 0.0017579189
-0.00018964472 -0.010887688 -0.0016912754 0.004341692 -2.5215559e-06 -0.017838102 0.0073362617 -0.019096684
-0.015287682 -0.0011729931 0.015000939 0.052928448 -0.008556021 0.008148901 -0.047472034 0.01093287
0.038427584 0.005723981 0.0218615 -0.010938874 0.0115365125 -0.0392917 -0.026036406 0.043339077
0.014748668 -0.0003144379 -0.009901727 0.0032086857 0.002177836 -0.010442961 0.0011968584 -0.023677375
-0.003950311 0.00035493082 0.0073512327 0.002323548 -0.0017894715 -0.000988544 -0.01892616 0.0035684006
-0.003230014 0.0038408474 0.002193993 0.005949942 -0.0087438 0.0008375925 0.0016683321 -0.0012796217
0.0009172671 0.00021736982 -0.0013801248 0.005445292 0.0036240453 -0.0061967773 0.0032711567 0.0032260965
0.005873033 0.00017450523 -0.0008160169 0.003833809 -0.0023109198 -0.0026913942 -8.305191e-05 0.00038578137
-0.00027069982 0.00057061936 0.0025147838 -0.0015682445 -0.0013604703 -0.002411697 -0.00076398364 -0.00044159737
0.002085823 0.00022554895 -0.0012587563 -0.0008458526 -0.00041426063 -0.009875151 5.3739408e-05 0.0061586313
0.0048543545 0.0006570026 0.0033639525 0.0008604706 0.004969813 -0.0019187476 -0.00050079386 0.001895913
0.0004590901 -0.0009875507 0.0008365016 -0.0037226405 0.00014910837 0.0012250654 -0.0044530886 -0.0064985384
-0.0013680501 0.00036113587 -0.002600493 0.0006638508 -0.0017785156 0.0064796847 -0.0023411217 -0.0024168694
00000000: 9de6 b23c f72c f03b 194b b0bb 9375 4dbd
00000010: 3016 91bd 99a8 4c3d 6574 f9bc 8107 aabc
00000020: 2214 fd3b 4a23 7dbc 8ecd 133d 3329 98ba
00000030: b3a4 163c 55f4 4bbc caa0 593c bb43 a5bb
00000040: 9921 3dbb 96e8 23bc e3ea ed3a 9fa6 2f3c
00000050: b3a3 bbba 9329 9ebb fcee 593c e104 a1bb
00000060: 8fee 993c aa65 363d 2c83 8b3c 6618 41bd
00000070: 3595 47bd 87bd 1abd d178 b4bc 6829 deba
00000080: 5b2c 1dbd a920 ccbc b332 e2bc 0718 833c
00000090: d725 f3ba 3e79 c2bb 85f2 ffbb b66b dfbc
000000a0: 4412 053c 037e ffbc 3fc0 a3bc c58d 06ba
000000b0: 16bb f5b9 7219 96bb d800 8a3a 3bd9 87bb
000000c0: a459 59b9 8a08 b7ba 75e5 0cbc 2e52 9239
000000d0: a51d 5bba 4d5a 8dbb b4a5 2838 12e1 51bc
000000e0: bc7c 273c a217 193b adf5 92ba b2c6 2e3c
000000f0: 650a a13c 6b9c df3a a810 ae3a 91d0 0cbb
00000100: 29cd fc39 b8d8 a438 02e9 84ba 40ac 42bb
00000110: 6f01 bcba a44d 2dba 7253 0a3b 1b76 cc3b
00000120: fec7 dbba b020 feba a028 7fbb 7bdb 9b3a
00000130: 5c38 82b8 87a9 68bc 369f 583b b3a2 48ba
00000140: 8576 a63b 7c15 913c c2f3 213c 1af8 7c3c
00000150: a0a4 05bc 452b 1d3b 5c7a e1bb 7cce 7b3a
00000160: 389d ecb9 6067 533b 049f 063c b2c6 873c
00000170: 93d7 c2b9 50c5 66bb 446b 8d3b 3719 66ba
00000180: 469c 2b3c 2ef1 6a3a 44be c03b 8de7 eebb
00000190: 9295 ea3b 3ce5 06bc 2503 973c b813 7a3c
000001a0: fade 82bc 3be5 0c3d cb37 e23c 2603 e53a
000001b0: 74e2 08bc 235d 15bd 5917 c1bc 2d9f 213d
000001c0: a490 a2bb f489 873c 0a16 a7bc 5b54 09bd
000001d0: 8fd7 a03c 7aeb 1d3c 9787 d33b d04e 5c3c
000001e0: 73f6 8a3c d6d9 e5bb 5ecf c33b 4630 6fbb
000001f0: d0d6 d7bb ef70 2ebc 98cb 2dbb 374f 5dbb
00000200: 44d3 833a b968 653b 66a7 603c 29fd abbb
00000210: 0487 d2b9 7f3f b7bc b5ee 5d3a c9c4 d839
00000220: 9fef b03a 56c2 c0bb db04 aabb 29f4 4a3a
00000230: 2849 cabb 051d 0d3d 7329 0c3c 7abd 1f3d
00000240: 3a00 043d 292d d7bc e2fc 44ba 8761 653c
00000250: 0778 a1bc a5ee ff3b b7b9 c7bb f869 e63a
00000260: 5edb 46b9 4662 32bc c9ad ddba c144 8e3b
00000270: 0038 29b6 3621 92bc 0665 f03b a670 9cbc
00000280: 3079 7abc 1ebf 99ba 80c6 753c 80cb 583d
00000290: 8e2e 0cbc f882 053c 0972 42bd c81f 333c
000002a0: 3e66 1d3d 3c90 bb3b e316 b33c f738 33bc
000002b0: a403 3d3c 55f0 20bd 4d4a d5bc 5184 313d
000002c0: 66a4 713c 24db a4b9 da3a 22bc d048 523b
000002d0: 06ba 0e3b f418 2bbc e7df 9c3a 0ef7 c1bc
000002e0: 9c71 81bb 0216 ba39 9ce2 f03b ab46 183b
000002f0: b38c eaba 0892 81ba 090b 9bbc d4db 693b
00000300: a4ae 53bb bab6 7b3b 18c9 0f3b bbf7 c23b
00000310: 2842 0fbc e291 5b3a f0ab da3a fbb8 a7ba
00000320: c174 703a c4ed 6339 4ee5 b4ba 6c6e b23b
00000330: 6481 6d3b 560e cbbb e760 563b eb6c 533b
00000340: 9272 c03b 64fb 3639 f8e9 55ba a440 7b3b
00000350: cd72 17bb 1a62 30bb 282c aeb8 b342 ca39
00000360: b7ec 8db9 9e95 153a 12cf 243b 8e8d cdba
00000370: cf51 b2ba 900d 1ebb 1346 48ba 3286 e7b9
00000380: 4eb2 083b 5681 6c39 dafc a4ba 35bc 5dba
00000390: 1f31 d9b9 63cb 21bc 4066 6138 58ce c93b
000003a0: 4711 9f3b b33a 2c3a c275 5c3b 3491 613a
000003b0: d0d9 a23b 7c7e fbba b547 03ba 4980 f83a
000003c0: 08b2 f039 b470 81ba ac48 5b3a 8bf7 73bb
000003d0: f959 1c39 6092 a03a 37eb 91bb b1f1 d4bb
000003e0: 2550 b3ba d656 bd39 086d 2abb 4606 2e3a
000003f0: 151d e9ba 8953 d43b 816d 19bb 5764 1ebb

bert.embeddings.raw_feature_embeddings.bias f4 [32]
-0.03259115 0.028203003 0.23185302 0.011352486 -0.029092971 -0.01866845 -0.004010862 -0.086289786
0.02389232 -0.0088483915 0.073516324 0.10210348 0.01648199 0.036906205 0.14006214 -0.019062953
0.0051241275 -0.0224125 -0.00553476 -0.007657791 -0.013072218 -0.009450353 0.030175794 -0.2432243
-0.060464144 -0.003326934 0.0021910218 0.019993788 -0.0007201218 -0.025787605 -0.006274568 0.18039891
00000000: 4c7e 05bd fc09 e73c e16a 6d3e c7ff 393c
00000010: 6254 eebc 94ee 98bc 8d6d 83bb b3b8 b0bd
00000020: d4b9 c33c d8f8 10bc ba8f 963d a11b d13d
00000030: 3d05 873c f62a 173d 736c 0f3e e929 9cbc
00000040: 4ce8 a73b 6b9a b7bc ef5c b5bb 35ee fabb
00000050: db2c 56bc a7d5 1abc 3a33 f73c ca0f 79be
00000060: 40a9 77bd b108 5abb 3f97 0f3b 03ca a33c
00000070: 8ec6 3cba 8740 d3bc e49a cdbb 7eba 383e

bert.embeddings.wl_role_embeddings.weight f4 [1500, 32]
-3.2306053e-14 1.07660476e-13 -2.5134796e-14 -2.2711859e-14 -6.139185e-14 9.34397e-14 4.17713e-14 -7.543208e-14
-2.973695e-14 1.9566165e-14 6.055777e-14 -9.5117124e-15 3.5589014e-14 2.7826154e-14 -4.502775e-14 1.1652994e-13
-3.3912645e-14 -3.0586946e-14 3.2761683e-14 7.2572766e-14 3.287833e-15 5.568027e-14 -9.520671e-15 2.6186516e-13
-1.1771803e-14 -3.0144073e-14 -7.568444e-14 3.115577e-15 1.5709574e-14 3.5736327e-14 3.608145e-14 8.31179e-14
0.0029219221 0.0017467435 0.03471909 0.001058849 0.0026225622 0.000928023 0.0013321262 -0.002849237
-0.000675512 0.0018384387 0.0028004907 -0.011552939 0.0020666132 0.00042626157 -0.0028472785 0.0012548615
0.0024561768 0.00038089574 0.0029791028 0.0015367565 0.0018296831 0.0025462718 -0.0044583874 0.009741169
0.0063467007 0.003057964 0.0007940159 0.0026761538 0.002040198 0.00080758234 -0.00043929083 -0.015977412
6.89652e-06 -2.4587252e-05 -0.0016351806 -5.2528692e-05 1.9706442e-05 -4.1429277e-05 -4.2572512e-05 -0.00023859755
-2.7380747e-05 5.5917494e-06 0.000113432805 4.8430215e-05 -4.2930733e-06 1.2497258e-05 0.0001823353 4.583406e-05
1.582973e-05 -0.00011191024 9.568945e-05 2.5983888e-06 7.323715e-06 4.6227167e-05 -3.091648e-06 -0.042499706
0.0001730367 7.4796444e-06 3.8519474e-06 -5.7496654e-06 -3.156038e-06 1.4780114e-05 -1.6425223e-05 0.00041210267
0.00068184105 0.002037783 -0.010497266 0.0024430898 0.00041593495 0.0013948064 0.0030221427 -0.0033315867
0.010243597 0.0009493721 -0.02490982 0.01605064 0.004114628 0.001641183 0.0088248495 0.00023601814
0.003293051 -0.016419748 0.0009464885 0.0007406934 0.0009946285 0.0014463678 0.0032943687 -0.003408529
-0.00084087066 0.001076108 0.002874004 0.0015084443 0.0014396666 0.0005006921 0.0004998165 0.012924141
-4.749144e-05 2.100831e-06 -0.00025404355 -4.551993e-06 -4.4378045e-05 -3.84803e-05 2.5441805e-06 0.0005291749
-7.6300144e-05 -2.946479e-05 -5.7487705e-05 0.00023027888 -1.4981233e-05 1.8414728e-05 -5.8293335e-05 -2.524394e-05
-2.0871254e-05 2.6491714e-05 -5.6228204e-05 -2.8865185e-05 -2.7657505e-05 -3.426393e-05 -2.9108114e-05 -0.00029274277
0.00010406905 -3.5984354e-05 -9.913465e-06 -6.040759e-06 -1.6787557e-05 -5.8609196e-05 -5.5055556e-05 0.00037006452
9.932752e-05 -2.3981687e-05 -0.060610507 0.000113805974 5.7686622e-05 -7.875467e-05 0.00043753313 0.021520786
0.00032470986 8.503954e-05 -0.00013057959 2.5691596e-05 0.00023098048 6.8771784e-05 -0.021775123 5.4184857e-06
-6.987889e-05 0.042255964 0.00045140693 3.7848135e-05 4.5670076e-05 -5.921913e-06 -1.8800238e-05 0.14168447
-0.00011593547 3.1632168e-05 -7.567167e-05 0.00010714703 0.00024885076 7.2446885e-05 -0.00027343933 -0.05153035
0.0005471627 0.002338891 -0.0039191428 0.0017039181 3.176875e-05 0.001574469 0.0025162257 0.0022077714
0.0006388847 -0.00029329665 -0.0017957959 -0.000110766225 0.0024108673 0.00047364098 -0.00034307287 -0.0006712853
0.0019439817 0.0003684818 0.0027234508 0.0018793738 -9.3994255e-05 0.0011573345 -0.0014206027 -0.003749183
0.00054312905 0.002601702 0.0015490251 0.0016731583 0.0018543353 0.0006590194 0.0005976869 -0.0060078227
-0.0012256077 0.0002822585 0.0043710303 0.002311133 -0.0018621298 0.0055560633 0.0040659364 -0.0023480013
0.0030506838 0.0025846194 0.0007179575 -0.0022786283 0.0056376564 0.00081754697 -0.00030231854 -0.00041424812
0.0026177675 -0.004279061 0.004633799 0.0014884585 0.0034744106 0.00068918 0.00035862508 -0.005713834
-0.004803802 0.0028793658 0.005703855 0.0017783301 0.003948906 0.0015882121 -0.0005825113 0.008524591
00000000: 587e 11a9 0a6e f229 e564 e2a8 fb91 cca8
00000010: fe3d 8aa9 5268 d229 081f 3c29 a2db a9a9
00000020: 5eec 05a9 813c b028 2d5d 8829 0859 2ba8
00000030: 5747 2029 bea2 fa28 76c9 4aa9 7833 032a
00000040: 9eba 18a9 59c0 09a9 a68b 1329 5a6b a329
00000050: d0e9 6c27 fbc2 7a29 5882 2ba8 bf6a 932a
00000060: dc0f 54a8 c0c1 07a9 1c6d aaa9 4080 6027
00000070: d07f 8d28 2ef1 2029 147f 2229 352a bb29
00000080: b87d 3f3b fcf2 e43a 9b35 0e3d 14c9 8a3a
00000090: 4bdf 2b3b 9246 733a bd9a ae3a 44ba 3abb
000000a0: d814 31ba c4f7 f03a 7088 373b 8a48 3dbc
000000b0: 0470 073b dc7b df39 6899 3abb 2a7a a43a
000000c0: cff7 203b f6b2 c739 0d3d 433b fe6c c93a
000000d0: fad1 ef3a 5adf 263b aa17 92bb 6d99 1f3c
000000e0: fcf7 cf3b 1f68 483b 8125 503a 6962 2f3b
000000f0: d8b4 053b efb3 533a 9e50 e6b9 10e3 82bc
00000100: a868 e736 b940 ceb7 8e53 d6ba 4152 5cb8
00000110: 434f a537 59c4 2db8 e38f 32b8 0b30 7ab9
00000120: b5af e5b7 c3a0 bb36 c6e2 ed38 8c21 4b38
00000130: 380d 90b6 50ab 5137 4231 3f39 f23d 4038
00000140: 16ca 8437 5ab1 eab8 e2ac c838 fb5f 2e36
00000150: 3cbe f536 0be4 4138 1c7a 4fb6 2c14 2ebd
00000160: 2f71 3539 a8f9 fa36 fa3f 8136 40ed c0b6
00000170: 52cc 53b6 1bf8 7737 e6c8 89b7 7c0f d839
00000180: 94bd 323a 538c 053b bafc 2bbc 3f1c 203b
00000190: d811 da39 f0d1 b63a 240f 463b c056 5abb
000001a0: c3d4 273c 48df 783a ae0f ccbc a27c 833c
000001b0: 00d4 863b f71c d73a 1a96 103c a37b 7739
000001c0: 3ad0 573b b582 86bc c51d 783a 182b 423a
000001d0: 325e 823a 0d94 bd3a 56e6 573b a161 5fbb
000001e0: e06d 5cba 310c 8d3a c959 3c3b feb6 c53a
000001f0: 32b3 bc3a e140 033a 1e06 033a c7bf 533c
00000200: 8c31 47b8 00fc 0c36 2631 85b9 52bd 98b6
00000210: 9022 3ab8 e865 21b8 b0bc 2a36 54b8 0a3a
00000220: 5403 a0b8 282b f7b7 f41e 71b8 0477 7139
00000230: e857 7bb7 5479 9a37 fe7f 74b8 f3c2 d3b7
00000240: ad14 afb7 863a de37 93d6 6bb8 8323 f2b7
00000250: 0a02 e8b7 9db6 0fb8 332d f4b7 457b 99b9
00000260: a53f da38 e8ed 16b8 0252 26b7 bab1 cab6
00000270: 01d3 8cb7 25d3 75b8 74eb 66b8 3805 c239
00000280: 0e4e d038 482c c9b7 b942 78bd 1eab ee38
00000290: 8af4 7138 1729 a5b8 b464 e539 5c4c b03c
000002a0: d23d aa39 4157 b238 31ec 08b9 4884 d737
000002b0: 5a33 7239 9239 9038 be61 b2bc 70d0 b536
000002c0: f28b 92b8 9714 2d3d d0aa ec39 20bf 1e38
000002d0: df8d 3f38 d8b4 c6b6 34b5 9db7 bc15 113e
000002e0: 6222 f3b8 c8ac 0438 ebb1 9eb8 20b4 e038
000002f0: 2f78 8239 a0ee 9738 685c 8fb9 7d11 53bd
00000300: 786f 0f3a 1448 193b 276c 80bb 0156 df3a
00000310: 703f 0538 6a5e ce3a 43e7 243b 42b0 103b
00000320: d47a 273a 9cc5 99b9 e960 ebba 2a4b e8b8
00000330: a4ff 1d3b 0453 f839 76de b3b9 32f9 2fba
00000340: 34cd fe3a ca30 c139 ec7b 323b 5255 f63a
00000350: c81e c5b8 b4b1 973a 8433 baba dab4 75bb
00000360: c660 0e3a 5181 2a3b a808 cb3a e04d db3a
00000370: 2b0d f33a 0bc2 2c3a 17ae 1c3a 45dd c4bb
00000380: 92a4 a0ba 18fc 9339 dc3a 8f3b 6176 173b
00000390: b512 f4ba a30f b63b 8c3b 853b ede0 19bb
000003a0: fbed 473b b862 293b 5035 3c3a 0a55 15bb
000003b0: 17bc b83b a650 563a 8280 9eb9 712f d9b9
000003c0: da8e 2b3b 5e37 8cbb 20d7 973b 6118 c33a
000003d0: f0b2 633b 16aa 343a d805 bc39 1d3b bbbb
000003e0: 3669 9dbb beb3 3c3b 67e7 ba3b db16 e93a
000003f0: d365 813b 8e2b d03a acb3 18ba baaa 0b3c

bert.embeddings.inti_pos_embeddings.weight f4 [100, 32]
0.056650728 -0.12425367 0.21404849 -0.003988122 0.060357 0.014138536 0.05258463 -0.17521155
-0.050387 -0.013131211 0.000651506 0.3176885 -0.036275234 -0.101418026 0.280231 0.018535435
-0.02409514 -0.13749924 0.030253608 0.0022089945 0.005370011 -0.040659815 -0.09664993 -0.25076824
-0.16276097 -0.015447547 0.039052967 -0.07208716 -0.032245293 0.034775212 0.1331895 0.29824585
-0.07028566 0.020814013 0.6985564 0.009008267 -0.056631193 0.014184099 0.011565028 -0.13160829
0.0784034 0.015639098 0.17525855 0.04600813 -0.023485746 0.042427566 0.14545181 -0.026317682
0.019726807 0.06836985 0.10802061 -0.0010114787 -0.009980732 -0.0013468736 0.03032802 -0.69924355
0.012160458 0.008866688 0.014471594 0.0037844013 0.027602062 -0.021459753 -0.050974894 0.28812665
0.058435988 0.03795059 0.14789988 0.019590747 0.03481163 0.018435752 0.020142669 -0.05326501
0.07719828 0.015443538 0.07392215 -0.07248623 0.04064971 0.010922659 0.022174934 0.025339127
0.025369508 -0.12726218 -0.021911947 0.01846265 0.025112964 0.031065715 0.036981728 -0.38527822
-0.11034627 0.011974293 0.016666006 0.033886574 0.0054476364 0.022330735 0.04344605 0.14393732
-0.041420557 0.057749532 -0.25488 0.014190112 -0.018040562 0.0097955195 -0.098818675 0.24208376
-0.011375599 0.010226389 -0.10181386 0.022008125 0.0106288185 0.04214517 0.0025856476 -0.00030009603
-0.0028935983 0.0061099515 -0.044096 0.008577971 0.01257983 0.015626738 0.015045244 0.24948256
0.056225155 0.020629313 0.019990157 0.040628746 0.008301963 -0.012283814 -0.037094936 -0.12233889
0.0006517632 0.04699937 0.012145834 -0.009628492 0.004049549 -0.010292473 0.034882333 -0.022814475
-0.05092775 0.008499668 -0.036992576 -0.2962362 0.021429896 0.03690805 -0.25202996 0.015507148
0.027541682 0.10931199 -0.008872611 0.002956851 0.005075195 0.020483201 0.023351334 0.0949317
0.00869212 0.0032453488 -0.044387273 0.02072412 0.023453863 0.004111857 -0.030758522 -0.14395238
0.0038099296 -0.011824227 0.036022566 0.002634178 -0.0056795157 -0.02525711 -0.01346686 0.0046706456
-0.0028874192 -0.019219734 -0.03880305 0.040442333 0.028106436 0.004900067 0.068023846 -0.018266669
-0.016553767 -0.031667996 -0.03552015 -0.013493313 -0.018023616 -0.010561191 0.0007336108 0.02087113
-0.012983535 -0.00794445 -0.0065227067 -0.002241874 -0.012824598 -0.011979239 0.024094347 0.021695554
1.7786984e-14 -1.6049103e-14 -9.782106e-15 6.767921e-14 -3.5828924e-14 2.1970151e-14 -1.1298726e-13 1.1517629e-14
3.4370235e-14 6.734886e-14 -6.344356e-14 3.48096e-14 4.887969e-14 -7.1978305e-14 4.1607227e-14 -8.920263e-15
2.4956442e-14 4.3176183e-14 -5.533566e-14 -3.3294195e-14 5.297988e-15 7.002119e-14 3.9081663e-14 -7.600474e-14
-1.4718152e-13 -4.407042e-14 3.0046644e-14 7.3968555e-14 -3.8819534e-14 1.5957578e-13 -1.87795e-14 9.675833e-14
1.2633269e-14 2.5335975e-15 -2.4733186e-14 -5.3690068e-14 -5.0773696e-14 9.662691e-15 -7.573067e-14 -2.4029091e-14
-5.822502e-14 4.9011793e-14 5.978266e-14 -1.19615215e-14 -5.845735e-14 -5.332897e-14 2.088624e-14 -3.127592e-14
3.524317e-14 3.599402e-14 -2.5677545e-14 -3.710155e-14 -6.458226e-14 6.4204115e-15 -3.4506906e-14 -3.2789015e-14
-1.6681037e-14 9.317156e-15 -6.554946e-14 -8.090429e-14 5.1203416e-14 -6.396294e-14 -5.4333626e-14 2.0216926e-14
00000000: 980a 683d b578 febd 872f 5b3e cbae 82bb
00000010: e738 773d 51a5 673c fb62 573d a86a 33be
00000020: 9962 4ebd 4a24 57bc d4c9 2a3a 11a8 a23e
00000030: 5795 14bd 41b4 cfbd 707a 8f3e a0d7 973c
00000040: 2c63 c5bc 9acc 0cbe 6ad6 f73c c7c4 103b
00000050: ebf6 af3b e88a 26bd 66f0 c5bd b264 80be
00000060: d0aa 26be b517 7dbc 01f6 1f3d 6fa2 93bd
00000070: a413 04bd 7470 0e3d d462 083e aeb3 983e
00000080: eef1 8fbd 2682 aa3c 98d4 323f 6997 133c
00000090: 1cf6 67bd 6c64 683c 3e7b 3d3c 53c4 06be
000000a0: f691 a03d 911d 803c fa76 333e 0573 3c3d
000000b0: 2e65 c0bc 87c8 2d3d 52f1 143e 2e98 d7bc
000000c0: 1d9a a13c 7e05 8c3d e939 dd3d 9893 84ba
000000d0: 3986 23bc 9489 b0ba 7872 f83c a001 33bf
000000e0: a83c 473c 9645 113c 441a 6d3c b803 783b
000000f0: b81d e23c 5dcc afbc 0dcb 50bd 5685 933e
00000100: 935a 6f3d 1472 1b3d 1173 173e c67c a03c
00000110: a496 0e3d 9306 973c 3d02 a53c 692c 5abd
00000120: 221a 9e3d e506 7d3c 7f64 973d a973 94bd
00000130: 4f80 263d f4f4 323c 35a8 b53c 0094 cf3c
00000140: b7d3 cf3c 0451 02be af80 b3bc fc3e 973c
00000150: b4b9 cd3c 877d fe3c 277a 173d 3043 c5be
00000160: 3afd e1bd d32f 443c 2687 883c a6cc 0a3d
00000170: 1682 b23b f2ee b63c 7cf4 313d 4e64 133e
00000180: 9aa8 29bd c68a 6c3d a27f 82be a57d 683c
00000190: cdc9 93bc 637d 203c 7261 cabd cee4 773e
000001a0: b860 3abc 968c 273c c983 d0bd 624a b43c
000001b0: 7f24 2e3c 6aa0 2c3d f873 293b 3556 9db9
000001c0: 86a2 3dbb fd35 c83b 029e 34bd 9e8a 0c3c
000001d0: a21b 4e3c a503 803c 5480 763c 5b78 7f3e
000001e0: 594c 663d cefe a83c 66c2 a33c 546a 263d
000001f0: f504 083c 0d42 49bc dcf0 17bd d08c fabd
00000200: 17db 2a3a 6982 403d 52ff 463c d3c0 1dbc
00000210: 14b2 843b c3a1 28bc c7e0 0e3d 6ce5 babc
00000220: 9e99 50bd 3142 0b3c 8785 17bd 45ac 97be
00000230: c08d af3c e52c 173d 120a 81be b111 7e3c
00000240: 189f e13c f7de df3d 6e5e 11bc bac7 413b
00000250: d24d a63b 63cc a73c 4c4b bf3c 8d6b c23d
00000260: 6569 0e3c ebaf 543b 6ecf 35bd a1c5 a93c
00000270: 5122 c03c c2bc 863b 4cf9 fbbc 4168 13be
00000280: 03b0 793b 67ba 41bc 668c 133d 2ca2 2c3b
00000290: 3b1b babb 00e8 cebc 1ba4 5cbc 370c 993b
000002a0: db3a 3dbb b472 9dbc f2ef 1ebd dca6 253d
000002b0: 783f e63c be90 a03b 1650 8b3d fba3 95bc
000002c0: c49b 87bc 4db6 01bd 947d 11bd 0f13 5dbc
000002d0: 43a6 93bc d808 2dbc ca4f 403a eff9 aa3c
000002e0: e5b8 54bc 7029 02bc 6ebc d5bb 68ec 12bb
000002f0: 431e 52bc 9244 44bc 8261 c53c e0ba b13c
00000300: fe35 a028 b68e 90a8 0038 30a8 6966 9829
00000310: f05b 21a9 b8e3 c528 b96c fea9 b07b 4f28
00000320: 2fca 1a29 f9a7 9729 b9dc 8ea9 bdc4 1c29
00000330: 7222 5c29 ab14 a2a9 de61 3b29 74b1 20a8
00000340: a3c9 e028 c072 4229 ac35 79a9 98f1 15a9
00000350: 50e1 be27 78ac 9d29 1702 3029 c025 aba9
00000360: 2fb6 25aa bc79 46a9 6c51 0729 f88f a629
00000370: e0d3 2ea9 96aa 332a 9426 a9a8 61e1 d929
00000380: ac94 6328 a090 3627 d8c6 dea8 6fcc 71a9
00000390: 16aa 64a9 4c11 2e28 c287 aaa9 506f d8a8
000003a0: 701c 83a9 c0ba 5c29 5b9e 8629 c87a 57a8
000003b0: 5ea2 83a9 1e2c 70a9 6420 bc28 aeda 0ca9
000003c0: 9cb8 1e29 481a 2229 6348 e7a8 2d17 27a9
000003d0: 236d 91a9 d851 e727 c167 1ba9 29ab 13a9
000003e0: da3f 96a8 ccd7 2728 b19a 93a9 262e b6a9
000003f0: 8599 6629 2008 90a9 68b2 74a9 0f19 b628

bert.embeddings.hop_dis_embeddings.weight f4 [100, 32]
0.05716931 -0.12421068 0.21412873 -0.003988347 0.060337037 0.0141691705 0.05259769 -0.17489938
-0.05038048 -0.013033998 0.0009942221 0.3175454 -0.036257442 -0.09816371 0.28074974 0.019118456
-0.024083722 -0.14560685 0.030246176 0.002181969 0.005395447 -0.04065215 -0.09483381 -0.25857782
-0.16504131 -0.015449259 0.039051075 -0.072086595 -0.032240853 0.035095938 0.13198256 0.29960057
-0.074214295 0.16804308 0.15843982 0.025925275 -0.08900924 -0.05433982 -0.06608215 0.0015338846
0.073323525 -0.0007168397 0.08472826 -0.0323876 0.083705716 0.05743363 0.03814401 -0.03503802
0.028364904 0.018904736 -0.06596559 -0.0062646307 -0.01767393 0.028050777 0.07280017 -0.17903474
0.025108136 0.008865963 -0.04310458 0.09969841 0.01501386 -0.038727403 -0.063248664 0.059044763
-0.0014949158 -0.00051960745 -0.023274025 -0.000551404 -0.00020558397 -0.00016130495 0.0012389842 -0.018058572
0.0021497342 -0.00051207514 -0.0012841646 0.001652669 -0.00015637542 -0.0006997183 0.013004204 -0.0011050681
0.00019881429 0.00015029579 0.00017968577 -0.0008248058 -0.0007375545 -0.00015280742 -0.0010247407 0.0032028395
0.0071258647 -0.00096643367 -0.0006559385 -0.00090366637 -0.00023364913 -0.00048619328 -0.0003517092 0.007874893
3.657117e-14 -1.7113996e-14 2.1299651e-14 -1.2573476e-13 9.730956e-14 4.0887283e-14 -2.6644126e-14 5.083084e-14
2.3099591e-14 -1.511448e-14 3.8267797e-14 1.0045752e-13 1.813396e-14 -2.143916e-14 9.043181e-15 -1.5103472e-13
1.9088133e-13 3.0514623e-14 -3.5690712e-14 1.9365613e-15 5.0719018e-14 1.3570081e-14 2.7843515e-14 -3.3796533e-14
1.154863e-14 -7.502051e-14 1.6849691e-14 -7.220888e-15 3.543151e-14 4.92789e-14 -1.0587102e-14 5.685682e-14
5.1573888e-14 8.925179e-15 3.770494e-14 3.3289076e-14 6.963031e-15 -7.148104e-14 5.3583928e-14 -2.7621965e-14
-5.990438e-14 -4.129074e-14 -1.6168495e-14 2.403808e-14 -3.9220265e-14 2.3802756e-14 2.6527835e-14 1.0103852e-13
-1.2969701e-13 3.412978e-14 2.388675e-14 -8.12435e-14 1.1323526e-14 -3.54974e-14 -2.9965386e-14 -4.4272372e-14
-5.968552e-14 -5.939561e-15 8.526234e-15 1.4209889e-14 3.8740373e-14 -4.2137968e-14 9.412641e-14 2.4937483e-14
1.88465e-14 4.4035783e-14 -4.1102335e-14 3.3722154e-14 5.248557e-14 -6.918572e-15 2.6809104e-14 2.3990633e-14
2.2664484e-14 -9.088304e-15 -5.081073e-15 -2.878626e-14 -1.1373373e-13 -8.157389e-14 -3.2222922e-14 5.2683064e-14
-7.9054025e-15 7.955862e-15 -6.026744e-14 -6.107088e-14 -7.603926e-14 -1.9577124e-14 -1.0430547e-14 1.5873638e-14
-5.7454746e-14 7.994836e-14 3.2816963e-14 3.559717e-14 -4.0228847e-14 2.5988035e-14 5.5349022e-14 2.8173381e-14
9.166002e-14 7.0688288e-15 7.522357e-14 -4.108349e-14 6.2940396e-14 -4.2447352e-14 -1.2687773e-13 1.1971294e-13
-3.0074826e-14 1.1922982e-13 -6.582055e-14 -2.0347029e-14 -1.1775307e-13 1.8400974e-14 1.8943692e-14 2.8733123e-14
-1.9003018e-14 2.1386698e-14 2.6952792e-15 -9.447504e-15 1.6012013e-14 1.3423236e-15 2.9042246e-14 -4.8983722e-14
-3.859141e-14 7.9502465e-14 7.5855236e-14 -2.0572535e-14 6.851815e-14 8.424289e-14 6.96152e-14 -6.9420394e-14
-3.8862793e-14 3.726569e-14 -3.4367454e-14 1.0104883e-14 4.553585e-14 8.000196e-15 2.7510319e-14 -1.0683432e-13
9.0845605e-15 -1.4784858e-15 -1.02335336e-13 -3.343922e-14 3.053044e-14 3.3712155e-14 2.1715626e-14 -1.02205537e-13
-4.409176e-15 3.404373e-14 1.6417714e-14 -3.4758895e-14 6.389339e-15 1.1850513e-14 1.6925881e-13 6.586353e-14
8.050327e-14 5.5267172e-14 6.4703275e-14 -2.2288752e-14 1.40683634e-14 5.3434802e-15 4.3671514e-14 -8.847616e-14
00000000: 5e2a 6a3d 2b62 febd 9044 5b3e aeb0 82bb
00000010: f823 773d cf25 683c ad70 573d d318 33be
00000020: c35b 4ebd 8d8c 55bc 8f50 823a 5095 a23e
00000030: af82 14bd 0e0a c9bd 6ebe 8f3e 4f9e 9c3c
00000040: 3a4b c5bc f619 15be d4c6 f73c 5dff 0e3b
00000050: 4acc b03b de82 26bd 3b38 c2bd 5064 84be
00000060: 9700 29be e41e 7dbc 05f4 1f3d 23a2 93bd
00000070: fc0e 04bd c2c0 0f3d 7026 073e 3f65 993e
00000080: aafd 97bd 7c13 2c3e 0c3e 223e 3e61 d43c
00000090: 7a4a b6bd 6e93 5ebd 1456 87bd a00c c93a
000000a0: a52a 963d 4cea 3bba 0386 ad3d dca8 04bd
000000b0: e76d ab3d 873f 6b3d e53c 1c3d 0784 0fbd
000000c0: 845d e83c 1bde 9a3c f818 87bd 8847 cdbb
000000d0: ebc8 90bc beca e53c 4118 953d e254 37be
000000e0: 94af cd3c 8b42 113c 6e8e 30bd ae2e cc3d
000000f0: b1fc 753c a0a0 1ebd 8488 81bd ecd8 713d
00000100: 0df1 c3ba 4436 08ba 2ba9 bebc 198c 10ba
00000110: 0792 57b9 f823 29b9 6965 a23a 92ef 93bc
00000120: 8ee2 0c3b c83c 06ba 6a51 a8ba 5f9e d83a
00000130: b5f8 23b9 4d6d 37ba 960f 553c efd7 90ba
00000140: ce78 5039 b898 1d39 086a 3c39 c837 58ba
00000150: 7258 41ba ee3a 20b9 9850 86ba bbe6 513b
00000160: 1680 e93b 4458 7dba 4af3 2bba 06e4 6cba
00000170: b6ff 74b9 c2e7 feb9 9c65 b8b9 b205 013c
00000180: b0b3 2429 3026 9aa8 a7d9 bf28 9490 0daa
00000190: 241f db29 d423 3829 2cfd efa8 f8eb 6429
000001a0: 0810 d028 9e23 88a8 c457 2c29 d135 e229
000001b0: 1156 a328 561b c1a8 50e8 2228 cb0c 2aaa
000001c0: cce9 562a f76c 0929 97bc 20a9 408b 0b27
000001d0: 0c6b 6429 f474 7428 c6ca fa28 c034 18a9
000001e0: a80a 5028 61ee a8a9 bec4 9728 7814 02a8
000001f0: c091 1f29 b4ee 5d29 64b8 3ea8 ba07 8029
00000200: a544 6829 20c8 2028 d6ce 2929 b1eb 1529
00000210: a0de fa27 04f6 a0a9 1052 7129 eacb f8a8
00000220: 86e4 86a9 fbf4 39a9 03a2 91a8 0a84 d828
00000230: e3a1 30a9 6b65 d628 06f1 ee28 be84 e329
00000240: 9e06 12aa f5b4 1929 1827 d728 b0f1 b6a9
00000250: 8cfc 4b28 b7dd 1fa9 bdf3 06a9 9262 47a9
00000260: 5c66 86a9 c8fe d5a7 5098 1928 8cfb 7f28
00000270: 9c78 2e29 c5c5 3da9 2ef4 d329 ec9d e028
00000280: 12c1 a928 cd51 4629 c41b 39a9 ffde 1729
00000290: be5f 6c29 9044 f9a7 9679 f128 a216 d828
000002a0: be24 cc28 68b8 23a8 a010 b7a7 4ca4 01a9
000002b0: 840d 00aa 25b0 b7a9 801e 11a9 7043 6d29
000002c0: 3c69 0ea8 f051 0f28 d0b5 87a9 f784 89a9
000002d0: a639 aba9 c655 b0a8 68e6 3ba8 1efa 8e28
000002e0: 6860 81a9 1707 b429 62cb 1329 be50 2029
000002f0: b42c 35a9 5414 ea28 1445 7929 65c3 fd28
00000300: 6766 ce29 70ae fe27 7063 a929 0a06 39a9
00000310: abba 8d29 772a 3fa9 04da 0eaa e8c8 062a
00000320: ea71 07a9 a83d 062a f736 94a9 0e45 b7a8
00000330: 0394 04aa c2bd a528 2ea1 aa28 0967 0129
00000340: fa29 aba8 5ea2 c028 2037 4227 ec30 2aa8
00000350: 3039 9028 0073 c126 6ecb 0229 639a 5ca9
00000360: decc 2da9 0d06 b329 91cf aa29 094d b9a8
00000370: 064a 9a29 b8b2 bd29 6ec2 9c29 2252 9ca9
00000380: c005 2fa9 6ad4 2729 fac6 1aa9 8c08 3628
00000390: 4313 4d29 641e 1028 7aca f728 cb91 f0a9
000003a0: 24a7 2328 8012 d5a6 4e70 e6a9 cc98 16a9
000003b0: 337f 0929 78d3 1729 d398 c328 7b25 e6a9
000003c0: 78db 9ea7 c051 1929 ace0 9328 478a 1ca9
000003d0: 4033 e627 d87a 5528 8891 3e2a bd4f 9429
000003e0: fa46 b529 b6e6 7829 e6b2 9129 5dc2 c8a8
000003f0: e06e 7d28 e884 c027 d4ad 4429 093b c7a9

bert.embeddings.LayerNorm.weight f4 [32]
-0.023799434 0.030065559 0.47010008 -0.016550805 -0.046371475 0.0064729354 -0.013553018 0.4070316
0.115120485 -0.017784132 0.20948812 0.15799499 -0.037905373 0.043495275 0.31974834 -0.020609807
-0.0115163615 0.16528913 -0.045100424 -0.02932566 -0.028017964 -0.033160653 0.11094119 0.47837922
0.12605822 -0.03578364 -0.0108455755 0.006702243 -0.029294483 -0.040747333 -0.008716915 0.5481156
00000000: 08f7 c2bc 0c4c f63c f5b0 f03e 8e95 87bc
00000010: 04f0 3dbd eb1a d43b 7a0d 5ebc 7266 d03e
00000020: 4ac4 eb3d 07b0 91bc 0e84 563e 70c9 213e
00000030: aa42 1bbd 1a28 323d 0eb6 a33e e6d5 a8bc
00000040: 1faf 3cbc 8e41 293e 39bb 38bd 5e3c f0bc
00000050: ee85 e5bc 77d3 07bd 2235 e33d 1fee f43e
00000060: 6815 013e de91 12bd a4b1 31bc 7d9e db3b
00000070: fcfa efbc ade6 26bd 64d1 0ebc 4e51 0c3f

bert.embeddings.LayerNorm.bias f4 [32]
0.08410326 0.01923798 0.1047258 0.014362467 0.03935494 0.003786364 0.032444425 -0.030382125
0.037906516 -0.013415229 0.07376996 0.13412638 0.003581231 -0.019020777 0.05048913 -0.0049943873
0.011474938 -0.077100724 -0.014184894 0.01831926 -0.012493635 0.076694645 0.008012576 -0.1728781
-0.11739824 0.03676305 0.007596983 -0.0071552256 0.004590708 0.011563922 0.094011396 0.12332515
00000000: 543e ac3d f898 9d3c 7b7a d63d 8e50 6b3c
00000010: a532 213d a624 783b 72e4 043d efe3 f8bc
00000020: dd43 1b3d 8ccb 5bbc b414 973d 6d58 093e
00000030: 16b3 6a3b 76d1 9bbc b1cd 4e3d f5a7 a3bb
00000040: 6101 3c3c fce6 9dbd c267 68bc 4612 963c
00000050: 1ab2 4cbc 1512 9d3d 2e47 033c f506 31be
00000060: 7d6e f0bd da94 163d 1df0 f83b 6276 eabb
00000070: a66d 963b 9b76 3d3c 0c89 c03d e591 fc3d

bert.encoder.layer.0.attention.self.query.weight f4 [32, 32]
1.2302665e-07 9.083715e-09 5.542631e-07 -1.8836827e-08 -1.10709315e-07 -5.4825986e-08 1.0004257e-07 5.67886e-08
1.234259e-07 -3.1945522e-08 1.326505e-07 2.3185976e-08 -3.2906314e-08 1.2996283e-08 -3.6336678e-07 2.7968504e-08
1.8532484e-07 7.242679e-08 8.006115e-09 -1.0052026e-09 1.061921e-08 1.8805498e-07 5.2746607e-08 -8.6108564e-08
-4.0075502e-08 -4.0596632e-08 2.6017e-09 -1.4371035e-07 6.402513e-08 4.7612076e-08 -6.734311e-08 -1.4806608e-07
6.1015635e-07 9.6964e-07 -1.21325975e-05 -1.7036015e-08 -5.038736e-07 1.9691129e-07 -1.6279239e-06 3.8563953e-06
-3.0903543e-06 1.12488635e-07 -3.4889754e-06 -8.006141e-06 1.5078759e-06 -3.89935e-07 -1.3950207e-06 2.0281942e-07
-1.6438876e-06 -5.031218e-07 8.3071563e-07 -5.123595e-07 -4.1974263e-07 -3.258971e-06 2.8602312e-07 -9.974893e-07
-8.668287e-07 2.1737085e-06 -1.6078516e-08 1.000741e-06 -1.0465441e-06 -1.6413352e-07 2.9255461e-06 2.3995776e-06
-3.972951e-07 6.4730727e-09 -3.2409894e-06 -1.179912e-07 2.827601e-07 2.771852e-09 7.753194e-09 2.7293416e-07
-3.8613672e-07 -1.5528053e-07 8.189986e-09 -1.6687103e-07 3.195196e-07 -9.831583e-09 1.9907402e-06 8.293118e-08
-1.365141e-07 -5.766576e-07 9.345425e-07 3.2316768e-07 -6.515924e-08 5.2810014e-07 -2.593243e-07 1.7797777e-07
-2.7944935e-09 4.6818485e-08 -2.6762738e-08 7.102065e-08 2.135101e-07 -4.2709843e-08 7.1815464e-07 -4.3919707e-07
4.1650048e-07 1.6800072e-10 -5.9359843e-07 1.1325767e-08 4.5588303e-07 -3.5280922e-07 5.892522e-07 2.095562e-06
-2.7399236e-07 -2.2695707e-07 -6.9343275e-07 8.454708e-07 8.2776396e-08 -6.6057126e-08 5.388275e-07 -2.4243768e-08
-1.9695585e-07 4.3564697e-07 -5.2741136e-09 -8.070812e-08 -1.1894156e-07 1.0989501e-07 -2.745826e-07 2.5176275e-06
2.8224338e-07 4.615325e-07 1.7315502e-08 -6.085433e-07 9.805562e-08 -5.5944916e-08 4.2775716e-07 2.0195666e-06
2.2564416e-06 -1.6767963e-06 3.085946e-05 -1.7874987e-07 -2.5999639e-06 -3.7212153e-06 5.8504475e-06 -2.3081795e-06
5.874186e-06 6.944283e-07 3.2516978e-06 1.6846543e-05 -9.195702e-08 3.6838196e-07 -5.453895e-06 -3.429882e-07
-2.1986584e-06 1.048157e-06 -4.314351e-06 7.477128e-06 1.1424823e-06 -6.9416e-07 4.5277955e-07 5.3060144e-06
1.8122001e-06 -9.025173e-06 1.3150503e-07 -3.8673224e-06 -1.3184938e-06 3.2739135e-07 -5.069215e-06 8.897359e-09
-2.9312866e-07 -7.152306e-08 1.6735763e-06 1.9219137e-08 -4.3233047e-07 -1.5454663e-07 -9.293805e-08 1.1859663e-07
2.6567392e-08 -4.971203e-08 -9.289138e-08 1.704383e-07 -4.696188e-07 -4.5032706e-09 -1.1598345e-06 -1.15492554e-07
2.649381e-07 3.519152e-07 -2.465653e-07 2.1422332e-07 7.13832e-08 -4.2784396e-07 1.2310724e-07 7.401294e-07
1.214097e-07 -5.31267e-07 2.7659395e-09 -6.3080626e-07 2.3962747e-07 1.445316e-07 -4.4852547e-07 1.6867398e-06
1.0667999e-06 9.4573416e-08 -6.285826e-07 -7.505146e-08 2.5676115e-07 4.4642114e-08 2.0134513e-07 -1.1972024e-06
4.0124553e-07 9.9880964e-08 4.5213963e-07 4.2327574e-07 -1.8174175e-07 2.5074955e-08 -2.0038955e-07 1.1902159e-08
2.5755e-08 1.0183123e-07 -3.4750303e-07 1.10838855e-07 1.7125075e-09 7.7804515e-07 -1.398138e-07 1.4749864e-07
-6.926482e-08 -1.9515745e-08 -1.3638208e-08 -2.839535e-07 1.8861186e-08 -8.876411e-09 -2.3483167e-07 -8.40956e-08
-2.0555296e-06 -7.2138164e-07 1.4237053e-05 -3.0014718e-07 -4.4142016e-06 -3.6746117e-06 2.2449617e-06 -2.09654e-06
2.418426e-08 -5.989136e-08 1.6899137e-06 9.251917e-06 -1.1873985e-06 4.7295075e-07 -5.1264738e-06 -4.878344e-07
-1.3434842e-06 5.968444e-07 -1.9746092e-06 -2.809986e-06 1.1528754e-06 -3.8161343e-06 3.45819e-07 8.871075e-06
1.1583229e-06 -2.074822e-06 7.579774e-08 1.3169868e-06 -8.0698555e-08 1.5798656e-07 -3.2015407e-07 2.9355338e-06
00000000: 4f19 0434 9a0e 1c32 acc8 1435 9fce a1b2
00000010: 17bf edb3 cf79 6bb3 fcd6 d633 bae7 7333
00000020: 0e87 0434 7934 09b3 b16e 0e34 802a c732
00000030: e054 0db3 4246 5f32 c014 c3b4 643f f032
00000040: b4fd 4634 0d89 9b33 448b 0932 6c27 8ab0
00000050: c86f 3632 29ec 4934 828b 6233 afea b8b3
00000060: 7b1f 2cb3 785c 2eb3 97c9 3231 cd4e 1ab4
00000070: 307e 8933 087e 4c33 449e 90b3 18fc 1eb4
00000080: a0c9 2335 9424 8235 1c8d 4bb7 9856 92b2
00000090: ee41 07b5 906e 5334 0a7f dab5 2f66 8136
000000a0: e263 4fb6 4891 f133 2424 6ab6 1d52 06b7
000000b0: 3962 ca35 4258 d1b4 8c3c bbb5 94c6 5934
000000c0: 8ca3 dcb5 440e 07b5 58fe 5e35 1489 09b5
000000d0: fd58 e1b4 b2b4 5ab6 b88e 9934 79e1 85b5
000000e0: 04b0 68b5 07e0 1136 081d 8ab2 3351 8635
000000f0: fb76 8cb5 ae3c 30b4 8054 4436 6e08 2136
00000100: d34b d5b4 c069 de31 c67f 59b6 5962 fdb3
00000110: 41ce 9734 f07a 3e31 e832 0532 c987 9234
00000120: 3a4e cfb4 30bb 26b4 f0b3 0c32 292d 33b4
00000130: 708a ab34 c2e7 28b2 a898 0536 e617 b233
00000140: b694 12b4 9ccb 1ab5 46dd 7a35 d47f ad34
00000150: aced 8bb3 c4c2 0d35 4339 8bb4 281a 3f34
00000160: 4009 40b1 7815 4933 e2e3 e5b2 0484 9833
00000170: 3641 6534 f86f 37b3 36c7 4035 c9ca ebb4
00000180: 649b df34 00b8 382f c657 1fb5 4093 4232
00000190: 16c0 f434 bb69 bdb4 1a2d 1e35 7ba1 0c36
000001a0: 3919 93b4 7cb1 73b4 5624 3ab5 50f4 6235
000001b0: cec2 b133 4adb 8db3 f2a3 1035 9c40 d0b2
000001c0: d07a 53b4 dde2 e934 9837 b5b1 c251 adb3
000001d0: d06c ffb3 6cff eb33 586a 93b4 83f4 2836
000001e0: 3c87 9734 8bc8 f734 31bd 9432 c75a 23b5
000001f0: a692 d233 1648 70b3 7fa6 e534 e487 0736
00000200: 5f6d 1736 480e e1b5 186f 0138 64ee 3fb4
00000210: 0a7b 2eb6 feb9 79b6 f64e c436 39e6 1ab6
00000220: e01a c536 c068 3a35 be37 5a36 ad51 8d37
00000230: e879 c5b3 08c6 c534 9a00 b7b6 f023 b8b4
00000240: aa8c 13b6 66ae 8c35 fec3 90b6 0ae4 fa36
00000250: 6557 9935 5056 3ab5 8c15 f334 510a b236
00000260: b93a f335 d36a 17b7 d433 0d34 0cc4 81b6
00000270: 1af7 b0b5 53c4 af34 3a18 aab6 00db 1832
00000280: 4c5f 9db4 3898 99b3 a59f e035 5417 a532
00000290: 0c1b e8b4 74f1 25b4 3c95 c7b3 30af fe33
000002a0: 5036 e432 f482 55b3 947b c7b3 b901 3734
000002b0: eb1f fcb4 30bb 9ab1 9cab 9bb5 b404 f8b3
000002c0: d13c 8e34 dbee bc34 ad5f 84b4 4205 6634
000002d0: 544b 9933 6db2 e5b4 762f 0434 4ead 4635
000002e0: d85c 0234 649c 0eb5 ec12 3e31 ad54 29b5
000002f0: 26a6 8034 8b30 1b34 dfcc f0b4 f063 e235
00000300: f72e 8f35 4918 cb33 debb 28b5 fa2b a1b3
00000310: fcd8 8934 86bc 3f33 5431 5834 90af a0b5
00000320: c46a d734 247e d633 99bd f234 933e e334
00000330: cb24 43b4 6964 d732 a92a 57b4 407a 4c32
00000340: d83b dd32 50ae da33 7490 bab4 4e06 ee33
00000350: 805d eb30 dbda 5035 ba1f 16b4 1e60 1e34
00000360: bdbe 94b3 94a3 a7b2 794d 6ab2 4672 98b4
00000370: 3004 a232 de7e 18b2 0a26 7cb4 0c98 b4b3
00000380: bbf1 09b6 f8a4 41b5 addb 6e37 ea23 a1b4
00000390: b41d 94b6 5999 76b6 26a8 1636 48b2 0cb6
000003a0: c0bd cf32 a09d 80b3 fed0 e235 ae38 1b37
000003b0: b45e 9fb5 dbe9 fd34 1304 acb6 baf3 02b5
000003c0: c451 b4b5 d636 2035 8783 04b6 3193 3cb6
000003d0: 7fbc 9a35 580c 80b6 00a9 b934 fad4 1437
000003e0: ac77 9b35 2c3d 0bb6 40c6 a233 52c3 b035
000003f0: 804c adb3 04a3 2934 a4e1 abb4 1600 4536

bert.encoder.layer.0.attention.self.query.bias f4 [32]
1.4408286e-08 3.35415e-06 -1.3246219e-07 8.1513775e-07 4.219521e-08 3.5545568e-07 -4.4879755e-07 2.4919411e-06
8.839844e-07 -5.806349e-09 6.366659e-07 2.8677582e-07 7.2859825e-07 -7.3165984e-07 4.2368038e-07 8.0047374e-07
0.00019514747 0.0045348206 -0.044398326 -0.0046600164 -0.0019192614 -0.00010449447 0.009460513 0.0034400383
0.0037596873 -0.0015256763 -0.00939211 -0.00016652518 1.9519532e-05 0.009875541 0.013231026 -0.058315225
00000000: 5088 7732 dc17 6136 ee3a 0eb4 d7cf 5a35
00000010: 203a 3533 75d5 be34 44f2 f0b4 393b 2736
00000020: f24a 6d35 3081 c7b1 59e7 2a35 2bf6 9934
00000030: e494 4335 4867 44b5 3076 e334 23e0 5635
00000040: 80a0 4c39 d598 943b 05db 35bd 0db3 98bb
00000050: ba8f fbba 0b24 dbb8 4400 1b3c 4472 613b
00000060: 1665 763b 34f9 c7ba 5de1 19bc 439d 2eb9
00000070: e0bd a337 05cd 213c f2c6 583c f2db 6ebd

bert.encoder.layer.0.attention.self.key.weight f4 [32, 32]
-1.3355759e-07 5.5942033e-09 8.688492e-07 -5.261071e-09 2.8001066e-08 -3.372828e-08 -1.9017786e-08 -2.0400985e-07
-4.719253e-08 2.155633e-09 1.7397383e-07 7.654857e-08 -5.1064152e-08 -6.978449e-10 -4.3127693e-09 -9.700979e-09
1.3915726e-09 -8.186049e-08 1.9050315e-08 -1.5008673e-08 -2.4967228e-10 -7.1497794e-08 2.3453453e-08 -3.9688423e-08
-8.038762e-08 -3.7964533e-08 2.2136888e-09 1.130776e-08 -1.7728755e-08 -1.8473651e-08 -2.578609e-08 2.0985571e-07
1.2988562e-07 8.761019e-07 -8.301475e-06 -1.2114742e-07 4.5744582e-07 -8.311528e-07 1.08766926e-07 3.3467943e-06
3.7158432e-07 -1.2866988e-08 -3.0138488e-06 -2.6281108e-07 -7.30461e-07 3.4456997e-07 -2.7345309e-06 -1.6036302e-07
7.419516e-07 3.2607945e-06 5.166276e-07 -3.1704758e-08 8.486502e-08 -1.189803e-06 -4.0033376e-07 4.6982893e-07
1.2135162e-06 2.0268599e-06 1.0652759e-08 7.0638464e-08 3.754323e-07 -5.464751e-07 4.5126995e-08 -6.0637467e-06
7.36503e-07 -7.0122226e-08 -1.4375704e-06 3.4728291e-09 -2.0179667e-07 8.269768e-08 2.693067e-07 1.205903e-06
-2.3879679e-08 1.3989567e-08 -1.6976122e-07 -2.8035566e-07 -9.166143e-08 1.50768e-08 -7.772355e-07 3.7286945e-08
1.7651533e-07 8.81559e-07 1.3200255e-07 2.348406e-07 1.11645555e-07 -4.9464585e-08 -6.292916e-08 -7.40922e-07
3.572124e-07 -1.3309767e-07 -1.6814243e-09 5.7306515e-08 -8.921029e-08 -7.744711e-08 2.1193735e-07 -1.788997e-06
-2.5662098e-07 -1.14924006e-07 -1.8103067e-06 -4.779991e-08 -3.420841e-07 -7.65471e-08 -1.404744e-07 2.8633008e-07
1.3453538e-07 6.2567374e-09 -1.4772438e-07 -2.1190033e-08 -7.912227e-08 -3.2828073e-08 5.0297007e-08 -1.13657705e-07
1.5165328e-07 1.5567062e-07 2.936839e-07 1.7220223e-07 3.441457e-08 1.4653272e-08 1.08210415e-07 -2.125585e-07
-3.2065124e-08 -1.3370959e-07 9.321946e-09 7.8423774e-08 1.8132958e-07 1.332466e-07 4.573672e-08 -4.5824837e-07
4.28614e-06 -9.468343e-07 1.1532018e-05 -3.7995935e-07 -7.482438e-07 1.09845814e-07 -1.0374714e-06 -9.413021e-06
-1.3004217e-06 -6.670044e-08 5.1713805e-06 2.3627647e-06 -4.7419024e-07 -4.4823915e-07 3.380772e-06 2.5506068e-08
4.3797905e-07 -5.9476824e-06 -2.5485042e-06 2.7091812e-07 -3.907959e-07 -1.4288737e-06 1.3881622e-06 -2.1131e-06
-3.193647e-06 -1.2223984e-06 -2.6716402e-08 -1.14914386e-07 5.1943243e-07 -6.1649035e-07 -1.4515469e-07 1.2023422e-05
-5.3989606e-07 2.8471192e-08 -9.190542e-07 -2.0127802e-08 1.2194025e-07 -4.3090328e-08 -9.927689e-08 -8.995766e-07
1.0709741e-07 -5.973989e-08 -6.731162e-08 4.4762902e-07 1.4603849e-08 -3.8294306e-08 7.969535e-07 3.500255e-08
-2.298639e-07 -5.8990736e-07 -3.4591096e-08 -1.9785254e-07 -3.1230453e-08 -1.816672e-07 9.963621e-08 4.3438433e-07
-2.3856384e-07 1.5444573e-07 3.8486614e-09 8.670369e-08 6.526704e-08 3.690636e-08 -5.8717504e-08 1.8589108e-06
9.068317e-08 -6.426433e-08 6.0935423e-07 6.0797527e-09 2.1558094e-07 -7.588137e-08 -3.6009027e-09 1.0976869e-07
-8.5297856e-08 2.113044e-09 2.14053e-07 1.170274e-07 -4.655423e-08 4.13538e-08 4.1528967e-08 -8.895437e-09
-9.550624e-08 -1.8451892e-07 4.7007426e-08 1.9461126e-09 -2.4991543e-08 -1.3722186e-08 3.861352e-08 1.1250858e-06
1.0500904e-07 -1.5544396e-07 -3.760391e-09 -1.1145669e-08 1.1651451e-08 -5.143894e-08 5.2538955e-08 3.1793837e-07
1.9744066e-06 -7.126929e-07 -2.486102e-06 5.7559106e-08 5.080738e-07 8.315766e-08 5.183009e-07 6.238935e-08
3.8650026e-07 6.0222294e-07 -4.352109e-06 2.3531468e-06 1.7073928e-07 -3.8879122e-07 3.5378016e-06 3.757247e-07
1.4069127e-06 -2.4824724e-06 -1.0140556e-06 3.085786e-07 3.4516808e-07 -1.590136e-06 9.895587e-07 -6.5312156e-06
-1.6925841e-06 5.465177e-07 6.3545436e-09 8.033237e-08 9.352914e-07 -5.861873e-07 -7.2756393e-07 8.479905e-06
00000000: 0868 0fb4 2237 c031 dd3a 6935 dfc4 b4b1
00000010: ff86 f032 a3dc 10b3 8e5c a3b2 cd0d 5bb4
00000020: bcb0 4ab3 4c22 1431 90cd 3a34 0563 a433
00000030: a151 5bb3 78d2 3fb0 852f 94b1 5ba9 26b2
00000040: 9c41 bf30 48cb afb3 16a4 a332 6cec 80b2
00000050: 4042 89af 548a 99b3 b076 c932 e275 2ab3
00000060: 90a1 acb3 720e 23b3 a01f 1831 0e44 4232
00000070: f249 98b2 fdaf 9eb2 3680 ddb2 b354 6134
00000080: b076 0b34 442d 6b35 9046 0bb7 c014 02b4
00000090: e096 f534 631c 5fb5 4093 e933 7d99 6036
000000a0: 297e c734 9d0d 5db2 8741 4ab6 7b18 8db4
000000b0: e614 44b5 56fd b834 e282 37b6 4030 2cb4
000000c0: 872a 4735 06d4 5a36 61ae 0a35 c02b 08b3
000000d0: 0a3f b633 52b1 9fb5 74ed d6b4 cc3c fc34
000000e0: 19e0 a235 3005 0836 5403 3732 e8b1 9733
000000f0: 068f c934 7cb1 12b5 a8d1 4133 3077 cbb6
00000100: 1ab4 4535 1a96 96b3 8bf2 c0b5 a8a6 6e31
00000110: 72ad 58b4 8897 b133 3b95 9034 83da a135
00000120: f81f cdb2 c456 7032 9c47 36b4 ca83 96b4
00000130: 67d7 c4b3 3c82 8132 38a3 50b5 6e25 2033
00000140: 2a88 3d34 46a4 6c35 96bc 0d34 7e28 7c34
00000150: cbc1 ef33 e372 54b3 ac23 87b3 c6e3 46b5
00000160: e6c6 bf34 9ce9 0eb4 dc17 e7b0 2e21 7633
00000170: e093 bfb3 0051 a6b3 e590 6334 781d f0b5
00000180: b8c5 89b4 24cc f6b3 aaf9 f2b5 8f4c 4db3
00000190: aea7 b7b4 3762 a4b3 4fd5 16b4 e8b8 9934
000001a0: ce74 1034 d8fa d631 2b9e 1eb4 6005 b6b2
000001b0: eee9 a9b3 d9fe 0cb3 2506 5833 fc13 f4b3
000001c0: 23d6 2234 6a26 2734 9cab 9d34 97e6 3834
000001d0: 38cf 1333 c6bd 7b32 4e61 e833 a33b 64b4
000001e0: fab7 09b3 d091 0fb4 5a26 2032 ed69 a833
000001f0: 7fb3 4234 8c12 0f34 0e70 4433 2d05 f6b4
00000200: aad1 8f36 f529 7eb5 a479 4137 37fd cbb4
00000210: ecda 48b5 60e4 eb33 3f3f 8bb5 9eec 1db7
00000220: 268a aeb5 f43c 8fb3 d285 ad36 fd8f 1e36
00000230: 3694 feb4 85a5 f0b4 38e1 6236 7018 db32
00000240: 6223 eb34 3492 c7b6 f806 2bb6 b472 9134
00000250: 94ce d1b4 bac7 bfb5 e450 ba35 c8ce 0db6
00000260: 7052 56b6 4a11 a4b5 fd7d e5b2 dac6 f6b3
00000270: 206f 0b35 e57c 25b5 d1db 1bb4 34b8 4937
00000280: 60ed 10b5 d090 f432 ecb4 76b5 81e5 acb2
00000290: aeee 0234 5112 39b3 0c32 d5b3 6f7a 71b5
000002a0: 6cfd e533 5a4a 80b3 f48c 90b3 aa51 f034
000002b0: 68e4 7a32 0979 24b3 3aee 5535 b655 1633
000002c0: 82d0 76b4 205a 1eb5 5091 14b3 4b71 54b4
000002d0: 3f22 06b3 4d10 43b4 96f7 d533 5435 e934
000002e0: f713 80b4 b8d5 2534 2f3d 8431 dc31 ba33
000002f0: ef28 8c33 f982 1e33 9430 7cb3 b07f f935
00000300: 9abd c233 b001 8ab3 8192 2335 12e6 d031
00000310: 707a 6734 39f4 a2b3 c073 77b1 fab9 eb33
00000320: fe2c b7b3 1035 1131 71d6 6534 7e50 fb33
00000330: ebf2 47b3 fc9c 3133 955d 3233 8cd2 18b2
00000340: 1c19 cdb3 2d20 46b4 36e5 4933 60bc 0531
00000350: fcac d6b2 d0be 6bb2 04d8 2533 a701 9735
00000360: 5581 e133 1ce8 26b4 c034 81b1 2c7b 3fb2
00000370: a02b 4832 b6ed 5cb3 31a7 6133 1eb1 aa34
00000380: 0c80 0436 e24f 3fb5 e8d6 26b6 e836 7733
00000390: 9162 0835 6894 b233 5e21 0b35 e8fa 8533
000003a0: 3180 cf34 72a8 2135 5508 92b6 c1ea 1d36
000003b0: 7554 3734 0fbb d0b4 f86a 6d36 36b7 c934
000003c0: 27d5 bc35 8d98 26b6 af1a 88b5 b8aa a534
000003d0: 8a4f b934 a86c d5b5 fad0 8435 b726 dbb6
000003e0: bf2c e3b5 69b4 1235 2857 da31 3083 ac33
000003f0: bc10 7b35 7c5a 1db5 d04d 43b5 ea44 0e37

bert.encoder.layer.0.attention.self.key.bias f4 [32]
-2.1793954e-13 -4.1791234e-13 -8.792122e-13 -1.9864606e-13 -1.9341308e-12 -3.3438467e-13 1.1309221e-13 -2.2775504e-13
-1.2147477e-13 -2.1108047e-14 8.110328e-14 -6.966613e-13 -7.4663325e-14 7.0775024e-14 7.4548874e-14 2.6256146e-13
1.8440183e-09 2.816697e-09 -2.047344e-08 2.2323663e-09 -2.7576241e-09 9.7390485e-11 2.3682056e-09 6.86271e-09
2.198947e-09 -1.1787298e-09 3.047778e-09 -5.232972e-12 7.17337e-11 2.4688442e-09 -3.0412188e-09 -1.8155124e-08
00000000: cc60 75aa 8443 ebaa ea79 77ab d4a7 5faa
00000010: 341a 08ac e93d bcaa 38a9 fe29 f636 80aa
00000020: b8c4 08aa d81f bea8 dca0 b629 bd17 44ab
00000030: 7a20 a8a9 065f 9f29 80de a729 18cf 932a
00000040: a070 fd30 dc8f 4131 92dd afb2 3468 1931
00000050: a380 3db1 f829 d62e eabd 2231 09cd eb31
00000060: 491c 1731 de00 a2b0 1471 5131 6c1e b8ac
00000070: 7cbe 9d2e 5ea8 2931 b0fd 50b1 8af3 9bb2
